modelFashion.pth (torch_old, 934104 bytes, 8 tensors)

conv1.weight f4 [20, 1, 5, 5]
-0.038479816 -0.08739157 0.027624484 -0.24390976 -0.042061616 0.07152242 -0.26097342 -0.16149276
-0.0209039 -0.054730184 -0.22169109 -0.29817885 -0.21700078 -0.34907886 -0.30875102 0.0077839023
-0.12077719 -0.3495935 -0.33367565 -0.13750638 -0.15215285 -0.1903883 -0.10035614 -0.19721083
-0.15309867 -0.2877436 -0.34456727 -0.27205145 -0.31611052 -0.15944366 -0.11667961 -0.35007617
-0.25316253 -0.20663872 -0.09061569 -0.0425099 0.06778434 -0.07898369 -0.21325997 -0.11257219
-0.056876697 -0.06416639 -0.15011229 0.039781995 0.2390855 0.11685115 -0.021768946 -0.10033906
-0.052498337 0.20767203 -0.030465847 -0.1492407 0.10358543 0.282938 -0.16792643 0.20364983
0.120851904 -0.059205074 0.17791481 0.036272295 0.16946815 -0.12811202 0.1928199 -0.056877892
-0.054736085 0.18131363 -0.05038865 0.028316272 0.009058208 0.1419316 -0.06882488 0.24555
0.12699239 0.12267435 0.15837602 -0.39040208 -0.11441746 0.30939838 0.1282741 0.13898881
-0.27761206 0.19922031 0.34681165 -0.08710445 -0.002345996 -0.22872104 0.05949943 0.28986058
-0.057118114 -0.016423516 -0.35782856 0.22447191 0.1800687 -0.17640199 0.079163186 -0.20376597
0.019948233 0.110841274 -0.16587272 -0.008752393 -0.07418523 -0.07245487 -0.21054386 -0.07040516
-0.28172764 -0.03214554 0.021000633 -0.20434918 0.021015078 -0.013199415 -0.113930464 0.27906275
0.22864434 -0.15383267 -0.25348106 0.17023717 0.09991747 0.21030293 0.005688831 0.09887645
-0.1100001 -0.048273154 0.20635094 0.18548921 0.053314637 0.057474885 0.079265624 0.061660778
0.02806814 -0.17873563 0.13017112 -0.14442734 -0.1487337 0.16353895 0.048117694 -0.04751847
-0.073884964 0.05773039 0.07125059 -0.09829577 -0.2003937 -0.25085372 -0.20322037 -0.039016634
-0.10641226 -0.22810994 -0.21354552 -0.090624474 0.09921207 -0.06110744 -0.21189184 0.11399491
0.14547025 -0.026375368 -0.06788553 -0.016123721 -0.03300257 -0.13797313 0.019096278 0.095705114
0.04054127 0.1976895 -0.2976425 0.13706693 0.15908289 0.018121878 0.27859813 -0.2566071
-0.14500172 -0.090715334 0.12683672 0.20397939 -0.21606526 0.11355991 -0.015991362 0.16277385
0.30537406 -0.14943135 -0.1341221 -0.02842897 -0.032939833 0.1291785 0.16206199 -0.20641278
-0.11687234 0.07849312 0.13959092 -0.17631304 -0.05352605 0.04517393 0.18329099 0.20915264
-0.34423342 0.006915143 0.15929519 0.15786535 -0.026906006 -0.26955193 0.09922832 -0.014085063
0.19751693 0.37601888 0.33220297 -0.039482426 0.14891729 -0.07904804 0.17906241 0.09215132
-0.016410254 -0.05871774 -0.21972032 0.19452156 0.18128018 0.04378773 0.0283316 0.13107032
-0.0023715086 0.21226457 0.1950888 -0.17867637 0.26243308 0.17394844 0.008755808 0.040425908
0.039778456 0.15439835 0.058931414 -0.25112298 0.06530725 -0.08406398 0.08484176 0.052998137
-0.24021992 0.0077161547 -0.1204142 0.21197836 -0.112828836 -0.17977446 0.028845824 -0.09197828
0.20148213 0.16980736 0.05237435 -0.1415361 -0.21319312 0.11206316 0.043719303 0.17182688
0.18101639 -0.1904973 0.28036273 0.1895442 -0.22003411 0.007218984 -0.15504867 0.0794968
00000000: 039d 1dbd 5afa b2bd be4c e23c 7bc3 79be
00000010: cd48 2cbd 597a 923d 4f9e 85be 5c5e 25be
00000020: a83e abbc c22c 60bd fd02 63be e6aa 98be
00000030: 7435 5ebe 77ba b2be 9d14 9ebe 1b10 ff3b
00000040: 085a f7bd ebfd b2be 89d7 aabe 79ce 0cbe
00000050: f5cd 1bbe 27f5 42be 8587 cdbd a3f1 49be
00000060: e6c5 1cbe 2153 93be 1f6b b0be 544a 8bbe
00000070: 3dd9 a1be 3345 23be b8f5 eebd 2f3d b3be
00000080: 859e 81be 1a99 53be b894 b9bd dc1e 2ebd
00000090: 84d2 8a3d 33c2 a1bd d260 5abe 408c e6bd
000000a0: 8af7 68bd ab69 83bd 09b7 19be 72f2 223d
000000b0: d4d2 743e a84f ef3d ca54 b2bc 917e cdbd
000000c0: 7f08 57bd faa7 543e 8393 f9bc 8ed2 18be
000000d0: 9924 d43d 40dd 903e e8f4 2bbe 9589 503e
000000e0: 3481 f73d 0581 72bd 4d2f 363e 4292 143d
000000f0: 0f89 2d3e cc2f 03be 9472 453e cbf8 68bd
00000100: f232 60bd 48aa 393e 5464 4ebd 87f7 e73c
00000110: e168 143c 8456 113e 0ff4 8cbd 7671 7b3e
00000120: 4b0a 023e b13c fb3d 532d 223e c8e2 c7be
00000130: b453 eabd 7769 9e3e 495a 033e 1553 0e3e
00000140: 2b23 8ebe 6900 4c3e 4c91 b13e d163 b2bd
00000150: 48bf 19bb d935 6abe adb5 733d 9b68 943e
00000160: aff4 69bd 9c8a 86bc 4e35 b7be f7db 653e
00000170: ee63 383e b9a2 34be 4f20 a23d 07a8 50be
00000180: 7a6a a33c c000 e33d 8ada 29be 3266 0fbc
00000190: 6dee 97bd 3863 94bd cf98 57be 9530 90bd
000001a0: 9b3e 90be 0bab 03bd 8509 ac3c e940 51be
000001b0: d027 ac3c 5c42 58bc 6054 e9bd 50e1 8e3e
000001c0: be21 6a3e 5086 1dbe 45c8 81be a752 2e3e
000001d0: 88a1 cc3d a759 573e 6069 ba3b bc7f ca3d
000001e0: bc47 e1bd 12ba 45bd a94d 533e e2f0 3d3e
000001f0: 7360 5a3d c96a 6b3d 0456 a23d 0390 7c3d
00000200: 28ef e53c 7906 37be 944b 053e c3e4 13be
00000210: a64d 18be c176 273e 0f17 453d baa2 42bd
00000220: 0051 97bd b476 6c3d d4eb 913d 4b4f c9bd
00000230: 0234 4dbe e66f 80be 0019 50be e8cf 1fbd
00000240: acee d9bd a795 69be adab 5abe 5399 b9bd
00000250: b32f cb3d cc4b 7abd 2dfa 58be 2a76 e93d
00000260: 27f6 143e 2811 d8bc 9207 8bbd e515 84bc
00000270: b42d 07bd d448 0dbe cc6f 9c3c 0b01 c43d
00000280: 9a0e 263d 1e6f 4a3e 9964 98be 465b 0c3e
00000290: a0e6 223e 5574 943c 6aa4 8e3e 0162 83be
000002a0: 557b 14be f6c8 b9bd 7ce1 013e f9df 503e
000002b0: 3640 5dbe 1992 e83d 5100 83bc 30ae 263e
000002c0: fd59 9c3e 8804 19be 4e57 09be dfe3 e8bc
000002d0: ebeb 06bd 5e47 043e 94f3 253e df5d 53be
000002e0: c45a efbd 00c1 a03d ecf0 0e3e 688b 34be
000002f0: 223e 5bbd 4c08 393d a2b0 3b3e 1c2c 563e
00000300: 5d3f b0be 6d98 e23b 471e 233e 74a7 213e
00000310: fc69 dcbc b602 8abe 3838 cb3d 09c5 66bc
00000320: e141 4a3e 8c85 c03e 8216 aa3e 53b8 21bd
00000330: c67d 183e f0e3 a1bd 235c 373e d5b9 bc3d
00000340: cc6e 86bc 0382 70bd 5dfe 60be a930 473e
00000350: 83a1 393e c35a 333d ac17 e83c 4c37 063e
00000360: 506b 1bbb e25b 593e 5cc5 473e f0f6 36be
00000370: a15d 863e 8a1f 323e 8574 0f3c a395 253d
00000380: bcee 223d 9a1a 1e3e 1162 713d 3193 80be
00000390: cfbf 853d bc29 acbd 84c1 ad3d 9314 593d
000003a0: 36fc 75be ccd7 fc3b b89b f6bd db10 593e
000003b0: ce12 e7bd cc16 38be 144e ec3c 1c5f bcbd
000003c0: 5551 4e3e fbe1 2d3e 7d86 563d d7ee 10be
000003d0: 4c4f 5abe 5f81 e53d 0313 333d 63f3 2f3e
000003e0: 5c5c 393e b911 43be b48b 8f3e e017 423e
000003f0: 9f50 61be 3a8d ec3b 14c5 1ebe 38cf a23d

conv1.bias f4 [20]
0.045817714 -0.119316965 -0.06525518 0.027093338 0.042967647 0.09001462 0.1210964 0.24040486
-0.04161992 0.10008461 -0.018231638 0.032183114 0.067849 0.015306924 -0.003982398 -0.067732304
-0.1685989 -0.11499147 -0.0863208 -0.11754041
00000000: 5bab 3b3d 745c f4bd 82a4 85bd d9f2 dd3c
00000010: d8fe 2f3d 9659 b83d 6401 f83d b12c 763e
00000020: a679 2abd 29f9 cc3d 845a 95bc 71d2 033d
00000030: 6bf4 8a3d e4c9 7a3c c77e 82bb 3cb7 8abd
00000040: 31a5 2cbe a680 ebbd f6c8 b0bd 07b9 f0bd

conv2.weight f4 [50, 20, 5, 5]
-0.0008200747 -0.05334315 0.012512363 0.071966395 0.013102511 -0.070782095 -0.027170308 -0.022604104
0.04426785 0.015674118 -0.05280479 -0.05538739 -0.06756584 -0.037496082 0.010074578 0.051650032
-0.011094828 -0.012946823 -0.074022 -0.043113224 0.028901182 0.034605287 0.031947356 0.056153942
-0.015560972 0.018598504 -0.02527162 0.037117157 0.105841875 0.020530928 -0.06576555 -0.09177857
-0.030109024 0.03972629 0.057207696 -0.005653034 -0.076100685 -0.043228786 0.04320951 -0.009934603
-0.036053505 0.00084018905 -0.0027086602 0.010599111 -0.05225355 -0.038275596 0.061427042 -0.009786433
-0.05317786 0.018588508 -0.012193562 -0.034246556 -0.037607536 -0.021058597 -0.006499801 0.019247988
0.05223585 -0.0046214806 -0.005377413 0.024137033 -0.012427846 0.051587008 0.025331182 0.01370374
-0.013400201 -0.007782199 -0.0003485593 -0.009211841 -0.019410802 0.062105656 0.012050791 -0.053590447
-0.074313246 -0.014100926 -0.042214382 0.027012026 -0.008724979 -0.06749591 -0.078600906 -0.00074958964
0.0423925 0.041683197 -0.023322001 -0.039252054 -0.039571367 0.012704565 0.042586654 0.013503089
-0.06311243 -0.07642269 -0.0038926795 -0.021815065 -0.01433549 -0.03920528 -0.05222053 0.057673126
-0.006198171 0.059537433 0.035182398 0.012046554 -0.027609399 0.061963145 0.011617658 0.052021127
0.014431974 0.024805497 0.013862038 0.08969424 0.005234897 0.02633111 -0.018350694 -0.02395824
0.06375464 0.06055488 0.06524316 -0.008843361 -0.03147758 -0.013240318 0.02527794 -0.013470595
0.05070325 0.027431289 -0.0051942463 -0.02824154 0.039009262 -0.017924136 -0.028236255 -0.04247096
0.004970362 0.015777638 0.05265644 0.030086825 -0.03352758 -0.030638104 -0.012778665 -0.005321242
0.02418326 -0.015227866 -0.038700465 -0.029961806 0.056371573 0.00932747 -0.027962795 -0.014428468
0.025052262 0.0353334 0.007338866 0.07427321 0.024143644 0.016061088 0.042145208 0.017578136
0.017087564 -0.05769159 0.0003343019 0.072175875 0.0029386093 -0.007830787 -0.03909456 0.037802413
0.03606016 0.06398212 -0.053728197 0.015487191 -0.023887401 0.07337986 -0.0025774243 -0.0120148305
-0.04066571 -0.0016835387 0.07930347 0.049148258 0.030058632 0.0033155659 -0.05975643 0.0048097735
0.047839858 0.088206396 -0.04986576 -0.02790642 0.0053088516 0.054986812 0.016858306 -0.022311732
0.00641119 0.061127163 0.030022843 0.033607 -0.0063144956 -0.046065412 0.02899086 0.06410675
-0.04320218 0.04051252 -0.039850447 0.0607196 -0.0033788385 -0.055175178 0.021374501 -0.009686993
0.015629074 0.025453815 -0.033029076 -0.07957293 -0.07425793 0.035826534 -0.011162153 -0.035677705
-0.029635772 -0.06581863 0.009119578 0.007747897 0.050834905 -0.013685793 0.021985475 0.0058595575
-0.072743036 -0.0018192439 0.03646587 0.04904622 -0.017650377 -0.032972135 -0.054459892 -0.017798023
0.0013360106 -0.019283652 -0.023563314 0.12320487 0.032894183 0.001820376 -0.010484739 -0.0009051371
0.08748213 0.030607963 -0.020785868 0.021271866 0.02093114 -0.0026699163 0.05028836 0.03865724
0.043727066 -0.053254675 -0.045449514 0.012818862 0.029019477 0.049106956 -0.00092192175 0.039337877
-0.05625911 0.020008605 0.043710697 -0.0025016563 0.0223282 -0.05935143 -0.014615236 -0.001997945
00000000: 48fa 56ba 597e 5abd a700 4d3c 1e63 933d
00000010: eaab 563c 34f6 90bd 4494 debc 3e2c b9bc
00000020: 3552 353d 0267 803c d649 58bd e3dd 62bd
00000030: f65f 8abd 7e95 19bd d80f 253c fc8e 533d
00000040: 15c7 35bc e91e 54bc d998 97bd 7e97 30bd
00000050: 2cc2 ec3c 46be 0d3d 3bdb 023d ad01 663d
00000060: 72f3 7ebc e45b 983c 6e06 cfbc 2908 183d
00000070: a0c3 d83d 7a30 a83c 17b0 86bd 67f6 bbbd
00000080: 33a7 f6bc 09b8 223d 9e52 6a3d 163d b9bb
00000090: adda 9bbd ab10 31bd 75fc 303d bfc4 22bc
000000a0: d7ac 13bd 2240 5c3a c783 31bb e5a7 2d3c
000000b0: d207 56bd dfc6 1cbd ec9a 7b3d 4657 20bc
000000c0: 07d1 59bd ed46 983c 82c7 47bc 1e46 0cbd
000000d0: 5c0a 1abd 1483 acbc 48fc d4bb f5ad 9d3c
000000e0: 42f5 553d ca6f 97bb 0235 b0bb 07bb c53c
000000f0: 2a9e 4bbc e64c 533d 5783 cf3c a785 603c
00000100: 848c 5bbc d101 ffbb d6be b6b9 43ed 16bc
00000110: 6703 9fbc 8062 7e3d ae70 453c a881 5bbd
00000120: 8b31 98bd 9207 67bc fde8 2cbd 5348 dd3c
00000130: 37f3 0ebc 4c3b 8abd 83f9 a0bd 1c80 44ba
00000140: c2a3 2d3d 00bc 2a3d c80d bfbc c3c6 20bd
00000150: 9615 22bd cf26 503c 586f 2e3d 0f3c 5d3c
00000160: 1741 81bd 8083 9cbd 531c 7fbb 82b5 b2bc
00000170: 67df 6abc b795 20bd 32e5 55bd a83a 6c3d
00000180: 071a cbbb 86dd 733d 6b1b 103d e95e 453c
00000190: 1b2d e2bc 11cd 7d3d fd57 3e3c 1b14 553d
000001a0: 1674 6c3c e634 cb3c 9a1d 633c 9db1 b73d
000001b0: 8089 ab3b 57b4 d73c 3254 96bc 1244 c4bc
000001c0: cb91 823d 6508 783d 359e 853d bfe3 10bc
000001d0: a3ee 00bd ebed 58bc af13 cf3c c5b3 5cbc
000001e0: 36ae 4f3d 95b7 e03c 7f34 aabb cd5a e7bc
000001f0: 2dc8 1f3d a3d5 92bc b84f e7bc 08f6 2dbd
00000200: 6bde a23b 1b40 813c 47ae 573d a578 f63c
00000210: 3754 09bd c3fc fabc 9b5d 51bc d05d aebb
00000220: f91b c63c 4d7e 79bc 6184 1ebd 7672 f5bc
00000230: e1e5 663d 3fd2 183c 3b12 e5bc 6265 6cbc
00000240: 673a cd3c c1b9 103d df7a f03b 8d1c 983d
00000250: e4c8 c53c 8b92 833c 74a0 2c3d 0600 903c
00000260: 38fb 8b3c 044e 6cbd 3e45 af39 f2d0 933d
00000270: af95 403b b44c 00bc 9e21 20bd b4d6 1a3d
00000280: d1b3 133d 0f09 833d 1912 5cbd fdbd 7d3c
00000290: 83af c3bc 2e48 963d 01ea 28bb dad9 44bc
000002a0: 1691 26bd 2faa dcba dc69 a23d af4f 493d
000002b0: 853d f63c f749 593b 29c3 74bd 4e9b 9d3b
000002c0: baf3 433d 8ea5 b43d 0a40 4cbd 019c e4bc
000002d0: e0f5 ad3b da39 613d 6e1a 8a3c 18c7 b6bc
000002e0: f614 d23b 7a60 7a3d 77f2 f53c 7ea7 093d
000002f0: d4e9 cebb 16af 3cbd 3d7e ed3c 664a 833d
00000300: c5f4 30bd 75f0 253d 393a 23bd 1eb5 783d
00000310: 816f 5dbb 5eff 61bd 9419 af3c 32b6 1ebc
00000320: 8b08 803c 8584 d03c 7f49 07bd 22f7 a2bd
00000330: 8b14 98bd d8be 123d 77e1 36bc c922 12bd
00000340: b8c6 f2bc ebcb 86bd 486a 153c 12e2 fd3b
00000350: 4338 503d 603a 60bc e21a b43c 8801 c03b
00000360: 4dfa 94bd b273 eeba 3c5d 153d b0e4 483d
00000370: 8697 90bc ca0d 07bd 5611 5fbd 29cd 91bc
00000380: 141d af3a c0f8 9dbc da07 c1bc d652 fc3d
00000390: 0dbc 063d af99 ee3a 2fc8 2bbc b946 6dba
000003a0: d529 b33d 8dbd fa3c 2047 aabc 5642 ae3c
000003b0: c877 ab3c c3f9 2ebb 2bfb 4d3d 0e57 1e3d
000003c0: 271b 333d 9321 5abd 4529 3abd 3406 523c
000003d0: 41ba ed3c 6024 493d 1fad 71ba c120 213d
000003e0: f46f 66bd 16e9 a33c fd09 333d d4f2 23bb
000003f0: a1e9 b63c 7c1a 73bd be74 6fbc f4ef 02bb

conv2.bias f4 [50]
0.07126479 0.032792494 0.00040129066 0.013070704 -0.0037360901 0.028550262 0.01282683 0.014049011
0.039572753 0.056250077 0.02755141 -0.032146547 0.042753614 0.04845128 0.025070148 0.0025329932
-0.02221854 -0.0048868335 -0.0024151115 0.05090667 -0.010376456 0.026566207 0.05126648 -0.017482249
0.006098418 -0.020237466 -0.018993907 -0.0143981045 -0.008619849 -0.010998227 -0.008402861 -0.012318824
-0.01710661 -0.056794044 0.038087424 0.059212897 -0.026970964 0.009928042 -0.045935716 0.032527994
-0.01507221 0.011968722 0.037656397 0.016209593 -0.0013005564 0.022775449 -0.018817132 0.004626585
0.0571822 -0.036200434
00000000: 46f3 913d 6c51 063d 5264 d239 8226 563c
00000010: 31d9 74bb 3de2 e93c a027 523c d32d 663c
00000020: 0a17 223d 7b66 663d 7fb3 e13c 19ac 03bd
00000030: 6a1e 2f3d d974 463d e95f cd3c 9300 263b
00000040: a803 b6bc bb21 a0bb d946 1ebb 8383 503d
00000050: 0302 2abc 60a1 d93c cdfc 513d ef36 8fbc
00000060: 3dd5 c73b 0bc9 a5bc 1c99 9bbc 07e6 6bbc
00000070: 443a 0dbc e831 34bc 27ac 09bc e5d4 49bc
00000080: 2923 8cbc dfa0 68bd 8f01 1c3d 3989 723d
00000090: 36f2 dcbc 3aa9 223c 1727 3cbd 133c 053d
000000a0: 6ef1 76bc 7518 443c 983d 1a3d fbc9 843c
000000b0: 6e77 aaba 9493 ba3c 6326 9abc 9c9a 973b
000000c0: e237 6a3d e846 14bd

fc1.weight f4 [256, 800]
0.04040547 0.016308567 0.0059304573 -0.031801313 0.016732356 -0.022624573 -0.013098519 0.046287317
0.018951587 0.0060757957 -0.039538257 -0.017642299 -0.035126235 0.0063244775 -0.049939584 0.012349474
-0.018677734 0.050074566 -0.014099591 -0.02902433 0.047368 0.01790502 -0.004736847 -0.012662953
0.02694587 -0.022985987 -0.04067436 -0.0032913666 -0.0021262183 -0.01491069 -0.035592064 0.013517463
0.03344337 -0.020311102 0.028396735 0.003295151 0.0019093413 -0.020507747 0.026642555 0.0036354228
0.03278258 0.014980799 -0.0059082294 -0.029291706 0.013892222 0.01793249 0.027475404 -0.027426593
0.0003479199 -0.011926135 0.030089036 -0.0023508463 0.0029478148 0.004748175 0.021289993 -0.013820888
0.015079451 -0.013262029 0.017507995 0.02124286 -0.020649578 -0.022989111 -0.028219221 0.035118688
-0.006637824 0.014919809 -0.006092219 0.0054419176 -0.041998222 0.028049344 0.021874001 0.0019286176
-0.019860553 -0.00013222387 0.0024412973 -0.025948392 -0.024245795 0.00034766342 -0.01839795 -0.0076890527
-0.031143539 -0.013876598 -0.03887219 0.013063079 -0.0094513325 -0.025159415 -0.044363532 -0.021184444
0.023730911 0.018564284 -0.017463686 -0.030780792 -0.012073926 0.0049492 0.007717009 0.02388617
-0.0021863503 0.02840572 -0.0009736523 -0.010657658 0.039200313 0.027878817 -0.032144453 -0.02341616
-0.0019287253 0.02392249 0.035200085 0.05862899 0.005193097 0.0013442455 -0.008379972 0.043203376
0.020970326 0.01577305 -0.04283235 0.014222651 -0.0040626926 -0.00070701144 0.021566195 0.02065998
0.03778062 -0.004470049 0.01858277 -0.010628219 -0.007983197 -0.048422456 0.001684465 0.032120854
0.033921428 0.03180627 0.013225516 0.0053872964 -0.0003489381 -0.013011117 0.007306855 -0.041402314
-0.024299653 -0.020922925 -0.014693509 0.026053816 -0.03705397 0.0047918665 0.013474612 -0.007667073
0.011615542 0.008912492 0.0008312772 0.034222227 -0.03664361 0.008115116 -0.032638244 0.028836623
-0.0023370783 -0.017072104 0.009564094 0.029378606 -0.04053085 0.0007640062 0.03687274 -0.01933125
0.037325285 -0.022137785 -0.015856346 0.04790896 -0.005287065 -0.003806362 0.0019444876 -0.001931413
-0.000345802 -0.016061464 -0.00076389534 -0.014895062 -0.043888107 -0.016809864 -0.004150691 0.0395583
0.026675886 0.014430562 0.032055948 0.0067965714 0.024659852 0.027270058 0.010937013 -0.0006424018
0.001296925 0.023963816 0.0033568642 0.012620296 -0.04420056 0.008561232 -0.027507253 -0.006674375
-0.0187928 -0.022819687 0.021041617 0.018316668 0.0233491 -0.008269051 -0.019932065 0.0037147081
0.041053664 -0.011299147 -0.030210324 -0.028941317 -0.01632985 0.02130013 0.008941599 -0.044681087
-0.008512717 0.035032574 -0.010158594 -0.010703793 0.003472882 0.0016763165 0.0012342872 -0.008443577
-0.03273589 0.03354511 0.014613174 -0.017827285 -0.029775895 -0.012416211 0.018743267 -0.0060176225
-0.01609984 0.032770608 -0.016981948 -0.018097026 0.022814896 -0.014809401 -0.033097573 -0.012693084
0.03563446 0.023311576 0.028636869 -0.0365471 -0.007120267 -0.01653631 -0.014893966 0.03224807
-0.024936626 0.009418589 -0.0406472 -0.0040246397 -0.002369165 0.010131007 0.0003317932 0.0002684435
-0.011746696 0.024493497 0.013853529 -0.0009086371 0.0054666055 0.011431525 -0.039959747 -0.030513482
00000000: 3580 253d 8b99 853c 4854 c23b 1842 02bd
00000010: 4b12 893c 2b57 b9bc 2c9b 56bc c597 3d3d
00000020: 5c40 9b3c 7817 c73b def2 21bd 9586 90bc
00000030: 87e0 0fbd 903d cf3b 738d 4cbd 7355 4a3c
00000040: 0c02 99bc fd1a 4d3d f901 67bc 6fc4 edbc
00000050: f304 423d 8cad 923c 8d37 9bbb 4678 4fbc
00000060: 96bd dc3c 1c4d bcbc 289a 26bd f8b3 57bb
00000070: 0658 0bbb f74b 74bc fcc8 11bd 5978 5d3c
00000080: eafb 083d 7863 a6bc 45a0 e83c 76f3 573b
00000090: dd42 fa3a ddff a7bc 7d41 da3c 4640 6e3b
000000a0: 0747 063d 0672 753c d299 c1bb 29f5 efbc
000000b0: 349c 633c 28e7 923c 1914 e13c bcad e0bc
000000c0: 0569 b639 d665 43bc 487d f63c a810 1abb
000000d0: 2030 413b 9496 9b3b 5a68 ae3c 0171 62bc
000000e0: cd0f 773c fb48 59bc ed6c 8f3c 8205 ae3c
000000f0: 4e29 a9bc a953 bcbc ff2b e7bc 9dd8 0f3d
00000100: 1a82 d9bb 3772 743c 3da1 c7bb 1d52 b23b
00000110: 5406 2cbd bdc7 e53c 1b31 b33c abc9 fc3a
00000120: 99b2 a2bc 93a5 0ab9 2cfe 1f3b b991 d4bc
00000130: 1e9f c6bc 9846 b639 4cb7 96bc 73f4 fbbb
00000140: bc20 ffbc ac5a 63bc 7238 1fbd 8606 563c
00000150: c3d9 1abc 1e1b cebc 89b6 35bd 008b adbc
00000160: 5467 c23c 2014 983c 0110 8fbc 0028 fcbc
00000170: b7d1 45bc e62c a23b f7de fc3b eeac c33c
00000180: df48 0fbb 1db3 e83c b33c 7fba 759d 2ebc
00000190: 8290 203d 1e62 e43c e7a9 03bd 3fd3 bfbc
000001a0: 48cd fcba 19f9 c33c f72d 103d f424 703d
000001b0: db2a aa3b 6531 b03a 264c 09bc 06f6 303d
000001c0: f6c9 ab3c 7c36 813c f970 2fbd 1f06 693c
000001d0: 5620 85bb bc56 39ba 97ab b03c 1e3f a93c
000001e0: dabf 1a3d 7d79 92bb e53a 983c fb21 2ebc
000001f0: f5cb 02bc a056 46bd 44c9 dc3a 2891 033d
00000200: 32f1 0a3d 4b47 023d d6af 583c eb87 b03b
00000210: aef1 b6b9 942c 55bc 586e ef3b 7995 29bd
00000220: 1110 c7bc 8e66 abbc 0bbd 70bc d06e d53c
00000230: e7c5 17bd 1705 9d3b 9ec4 5c3c 123c fbbb
00000240: 1d4f 3e3c b305 123c 12ea 593a 9b2c 0c3d
00000250: 9c17 16bd 43f5 043c aeaf 05bd c83a ec3c
00000260: ab29 19bb ccda 8bbc b8b2 1c3c 67ab f03c
00000270: ad03 26bd 9747 483a df07 173d 925c 9ebc
00000280: 66e2 183d 4d5a b5bc 2be5 81bc 303c 443d
00000290: 1e3f adbb 2874 79bb 2dde fe3a 7727 fdba
000002a0: c24c b5b9 5593 83bc 2640 48ba 6b0a 74bc
000002b0: 04c4 33bd d7b4 89bc 8502 88bb e207 223d
000002c0: 6387 da3c 2a6e 6c3c 194d 033d c6b5 de3b
000002d0: 7503 ca3c 7565 df3c 2831 333c db66 28ba
000002e0: 95fd a93a c44f c43c d6fe 5b3b 5cc5 4e3c
000002f0: a50b 35bd 6944 0c3c e456 e1bc b7b4 dabb
00000300: 5cf3 99bc 5af0 babc 785f ac3c d60c 963c
00000310: 9d46 bf3c ea7a 07bc 9248 a3bc 7672 733b
00000320: e327 283d 0f20 39bc a47b f7bc 5716 edbc
00000330: 2dc6 85bc 9c7d ae3c c97f 123c 8403 37bd
00000340: ec78 0bbc 517e 0f3d 3b70 26bc f65e 2fbc
00000350: 4b99 633b d9b7 db3a cec7 a13a ee56 0abc
00000360: 1216 06bd 9966 093d 186c 6f3c 870a 92bc
00000370: 94ec f3bc 5d6d 4bbc 7b8b 993c 7a2f c5bb
00000380: d0e3 83bc 793a 063d ba1d 8bbc 3740 94bc
00000390: 4ee6 ba3c 21a3 72bc 5291 07bd a7f6 4fbc
000003a0: 71f5 113d ebf7 be3c de97 ea3c 69b2 15bd
000003b0: 2151 e9bb 2877 87bc d205 74bc 8d16 043d
000003c0: e547 ccbc 6d50 1a3c ae7d 26bd 20e1 83bb
000003d0: fe43 1bbb 86fc 253c 88f4 ad39 e0bd 8c39
000003e0: 3775 40bc 96a6 c83c e9f9 623c 9b31 6eba
000003f0: 3621 b33b 4b4b 3b3c d5ac 23bd 69f7 f9bc

fc1.bias f4 [256]
0.008992941 0.004747046 0.004730345 -0.010033864 0.023325419 0.018619163 0.010437147 0.010354002
0.050270867 0.0458797 -0.031032007 -0.015540588 -0.036091115 0.0007371813 0.024474408 0.007393856
0.0252722 -0.014712322 -0.033937223 0.0029904281 -0.005794011 0.017813772 0.0037772702 -0.018494638
0.026906831 -0.031783268 -0.015151239 -0.0046373424 0.007563997 -0.008098677 -0.0014701947 -0.0053563784
-0.00879913 0.044827465 -0.0020805937 0.045412842 -0.028111115 -0.029975865 -0.013073507 0.003902988
-0.020180503 -0.041137904 0.018786868 0.029265597 -0.036832135 0.030465879 -0.019979728 0.021293486
0.021576762 0.01332667 0.016062977 -0.0153472135 0.007873609 0.017985562 0.054326765 0.046359744
0.05115991 0.0041117067 0.03027302 0.027865592 0.046140105 0.019005166 0.0311664 -0.025988359
0.010745112 0.017548837 -0.018059617 0.025569608 0.03422146 -0.014681377 -0.03252752 -0.013467121
0.026500447 0.018510344 0.03522472 -0.015660996 0.013149101 0.028408872 0.027152019 0.0036136978
0.03043439 0.033467542 -0.020546831 0.03552819 -0.024935719 -0.027355846 0.052327048 -0.04571613
-0.0031566045 0.03127221 -0.019551316 -0.005109958 0.0073224483 0.04361563 -0.013659089 0.012149627
-0.01879066 -0.017424049 0.025846653 0.004334593 0.011183101 0.018772522 0.026502907 0.031556543
-0.025307115 0.025907196 0.01849841 -0.022863222 -0.0021571869 0.013857812 0.024357658 0.00883527
-0.026209718 0.0033175175 -0.015790658 -0.011792407 0.022057248 -0.013957289 0.03630452 -0.009201248
-0.01033603 -0.009282866 0.0037249667 -0.008505374 0.00877494 -0.016222978 0.034337346 -0.0083657885
-0.031106286 -0.0022920372 -0.027656507 0.031328328 -0.013388559 0.010385338 -0.024082137 0.00041984883
-0.0008308514 -0.00861699 -0.013670594 -0.005067941 -0.010276256 -0.01458235 -0.029348087 -0.014229206
0.029754156 0.002339757 0.020718856 -0.042909294 -0.017997323 0.018448297 0.02712653 -0.013505436
0.010482463 0.025255017 0.014345595 -0.016434705 -0.01936921 0.028209493 0.032518193 -0.036874175
0.0034372017 0.030314647 -0.01436817 -0.021603713 0.0073418356 -0.01794136 0.026156288 -0.0022076552
0.006827836 0.010624635 -0.018515375 -0.035851747 0.023504147 -0.024456434 0.012788104 0.008539094
0.01292364 0.0051420056 0.0057729734 0.041764393 0.0006040315 0.032555006 -0.019695882 0.011625799
0.03379286 -0.022809336 -0.009958848 0.0051457672 0.030291574 0.029809956 -0.00032681192 -0.029053088
-0.0050529223 -0.021461401 0.02135235 -0.00867678 0.027240401 -0.036435924 0.029317595 0.0064020786
0.0053421175 -0.028834654 0.0055778404 0.024389654 -0.022010868 -0.002007354 0.013751502 -0.020335628
0.0070587336 -0.025617996 -0.02860412 0.017913122 -0.01772727 -0.02408802 0.020164782 0.019190498
-0.009971798 -0.017782206 -0.023725051 -0.01313925 -0.0214197 -0.011647046 0.018800676 -0.008663445
-0.022836406 -0.020238627 -0.013132775 -0.022642687 0.029391449 -0.040720068 0.0007269553 -0.001431952
0.05258424 0.02592749 0.027901797 0.01829303 -0.02909023 -0.020001583 -0.024913691 -0.006928712
0.005867421 0.024201116 -0.006147478 -0.021727853 0.03630756 0.003343194 -0.03343177 -0.0017191564
0.021793116 -0.024808267 -0.011213147 -0.013425985 0.012245964 0.0320079 -0.020560138 -0.034767717
00000000: 2157 133c 1c8d 9b3b 0301 9b3b 1365 24bc
00000010: f314 bf3c 3787 983c 9100 2b3c d5a3 293c
00000020: d3e8 4d3d 5aec 3b3d d636 febc f39d 7ebc
00000030: 47d4 13bd 663f 413a 8e7e c83c 2948 f23b
00000040: a507 cf3c f30b 71bc c201 0bbd 0ffb 433b
00000050: b0db bdbb 30ee 913c 148c 773b 1182 97bc
00000060: b76b dc3c 2c2f 02bd e73c 78bc d9f4 97bb
00000070: 68db f73b 50b0 04bc 8cb3 c0ba 8f84 afbb
00000080: 3a2a 10bc 019d 373d 925a 08bb d102 3a3d
00000090: 4849 e6bc f28f f5bc 4332 56bc 46c9 7f3b
000000a0: 9551 a5bc 3880 28bd ebe6 993c 68be ef3c
000000b0: 4bdd 16bd 9493 f93c 87ac a3bc ad6f ae3c
000000c0: c0c1 b03c 1b58 5a3c 8196 833c e172 7bbc
000000d0: 4f00 013c 7556 933c be85 5e3d b7e3 3d3d
000000e0: 0e8d 513d 7fbb 863b 20ff f73c 6246 e43c
000000f0: 68fd 3c3d b9b0 9b3c ae50 ff3c 8ae5 d4bc
00000100: 440c 303c 94c2 8f3c c3f1 93bc 5b77 d13c
00000110: cd2b 0c3d 298a 70bc 943b 05bd 33a5 5cbc
00000120: 7717 d93c 01a3 973c cc47 103d 7d4b 80bc
00000130: 546f 573c b9b9 e83c e96d de3c cad3 6c3b
00000140: 8b51 f93c 4315 093d d451 a8bc 0286 113d
00000150: fe45 ccbc 5e19 e0bc e354 563d d640 3bbd
00000160: 09df 4ebb 4a17 003d 152a a0bc 6f71 a7bb
00000170: 26f1 ef3b 4ea6 323d 5fca 5fbc 3b0f 473c
00000180: dfee 99bc e1bc 8ebc 5cbc d33c 3409 8e3b
00000190: 5339 373c d5c8 993c a01c d93c 6f41 013d
000001a0: de50 cfbc 543b d43c fa89 973c a74b bbbc
000001b0: 975f 0dbb e00b 633c b689 c73c cfc1 103c
000001c0: c3b5 d6bc b56a 593b 695b 81bc f134 41bc
000001d0: 67b1 b43c 1dad 64bc 0cb4 143d d5c0 16bc
000001e0: 7458 29bc 2917 18bc 921e 743b 205a 0bbc
000001f0: c4c4 0f3c 0de6 84bc 51a5 0c3d a910 09bc
00000200: 9cd2 febc 0136 16bb e68f e2bc 2252 003d
00000210: b05b 5bbc 4427 2a3c e747 c5bc 281f dc39
00000220: 7ecd 59ba 472e 0dbc a1fa 5fbc f810 a6bb
00000230: be5d 28bc cfea 6ebc 666b f0bc 9e21 69bc
00000240: fdbe f33c 9c56 193b 97ba a93c a8c1 2fbd
00000250: 1f6f 93bc e220 973c 7538 de3c e745 5dbc
00000260: a3be 2b3c 9ce3 ce3c c909 6b3c 13a2 86bc
00000270: 2dac 9ebc 9817 e73c cc31 053d 6009 17bd
00000280: ad42 613b 6c56 f83c 7968 6bbc 45fa b0bc
00000290: c893 f03b c2f9 92bc b645 d63c 4fae 10bb
000002a0: 0abc df3b f312 2e3c 8ead 97bc 48d9 12bd
000002b0: c58b c03c dc58 c8bc 3285 513c 8ee7 0b3c
000002c0: adbd 533c 457e a83b 362b bd3b 2411 2b3d
000002d0: de57 1e3a 6658 053d 4259 a1bc 237a 3e3c
000002e0: 626a 0a3d a5da babc 702a 23bc d39d a83b
000002f0: 0926 f83c 0234 f43c f457 abb9 be00 eebc
00000300: fc92 a5bb d2cf afbc 20eb ae3c 0e29 0ebc
00000310: 4327 df3c d63d 15bd 742b f03c 87c8 d13b
00000320: ee0c af3b a736 ecbc 51c6 b63b d0cc c73c
00000330: 2350 b4bc d08d 03bb fb4d 613c e796 a6bc
00000340: f34c e73b d5dc d1bc 3053 eabc 8abe 923c
00000350: c838 91bc 3d54 c5bc 9d30 a53c 6435 9d3c
00000360: c160 23bc fdab 91bc 0a5b c2bc 0246 57bc
00000370: 5e78 afbc 40d3 3ebc e003 9a3c 1ff1 0dbc
00000380: 6a13 bbbc 7acb a5bc da2a 57bc 287d b9bc
00000390: 56c6 f03c 16ca 26bd 2591 3e3a 56b0 bbba
000003a0: 9262 573d e365 d43c 4f92 e43c 44db 953c
000003b0: a24e eebc 5cda a3bc cc17 ccbc 400a e3bb
000003c0: 7f43 c03b 6b41 c63c c870 c9bb 9cfe b1bc
000003d0: 3cb7 143d 7d19 5b3b c0ef 08bd 5155 e1ba
000003e0: 7a87 b23c b53a cbbc 59b7 37bc aaf8 5bbc
000003f0: 4ca3 483c b71a 033d bc6d a8bc 9868 0ebd

fc2.weight f4 [10, 256]
0.09172612 -0.008369163 0.05150262 0.04446839 0.008247411 -0.04884106 0.011937024 0.03568837
0.1287456 0.026006365 -0.06672378 -0.06269758 -0.036273513 -0.008458001 -0.018040052 0.106963545
-0.038021024 0.066517465 -0.013745804 0.052285276 0.0038370423 0.066882856 0.076476656 0.086445406
0.07218033 -0.08442585 0.07242703 0.009375465 0.032735143 0.018451778 0.064433195 -0.053895477
0.12570664 0.016080309 0.13670105 0.011253024 0.10538757 -0.04565437 0.036902692 0.08954249
0.020984247 -0.116866134 -0.07231804 -0.055421103 0.05038918 0.061115135 -0.0016416934 -0.019713098
-0.007902302 0.0092715705 0.07212223 -0.049609344 -0.015522652 0.006829553 0.01891936 -0.068811744
0.011674201 -0.023127228 0.11532277 -0.040996604 -0.020402165 0.15799686 -0.03813485 0.015209412
-0.060103875 0.011101387 -0.07282877 0.019393811 -0.048433874 0.058335252 -0.013365662 -0.052553296
0.051524587 0.04448212 0.11078832 0.027925486 0.046961945 0.11078409 -0.10024688 -0.036583103
0.025928196 0.05343294 0.019018631 -0.08393581 0.041075084 -0.07741602 0.14106666 -0.046916462
-0.055302095 0.09660937 0.0657754 0.0044712694 0.010645316 0.07375094 -0.05640196 -0.0021464822
-0.009913336 0.039967593 -0.11283708 0.06712885 -0.045727137 -0.066615015 0.067675374 -0.06721481
-0.006725197 -0.024521613 0.09089682 -0.09524967 -0.014174657 0.010005467 0.022462523 -0.014609006
-0.03535339 0.00032314248 -0.1581373 -0.03270687 -0.0678146 0.0735431 0.017129147 -0.038877003
0.10596419 -0.014426138 -0.048406728 0.023502564 -0.10878874 -0.039030477 -0.049034413 0.028627694
0.045247585 -0.018867867 0.032420978 0.0607009 -0.014424352 -0.0028524585 0.029973576 -0.015833616
0.004696457 -0.062769584 -0.06560893 0.014933548 0.03673132 -0.06952616 -0.034138307 0.08125092
-0.080086075 0.040957596 -0.0043105446 -0.08340115 -0.05797914 -0.10562371 0.0136959525 0.050679673
-0.010056771 0.022318603 0.15290001 -0.034332905 -0.063517295 0.022487719 0.0070207 -0.014702745
-0.090584755 -0.00014059513 -0.09763722 -0.05937308 -0.05626725 -0.030388948 0.092364 -0.111207806
-0.08551368 -0.03722093 0.07802355 -0.11266643 -0.043812364 0.0861368 0.021244388 -0.10631321
0.0075128605 -0.038787592 -0.11264412 0.06709793 -0.0042966804 0.031287793 0.021467943 0.12702061
0.06531236 0.13244103 0.04441763 -0.058398113 -0.08271172 0.010046494 -0.040139712 -0.035491392
0.1331762 0.010813215 0.061542664 -0.02427206 0.030427936 0.010238033 -0.05862148 0.110089615
0.02679971 -0.15374702 0.020651361 0.008947577 -0.061976004 0.079472065 -0.0507145 -0.02866883
0.063745596 -0.03092129 -0.022064276 0.048337232 0.09798928 -0.08171535 0.016563201 0.06723278
0.00021639981 0.07846501 0.07725085 0.08821779 0.049578626 -0.044711675 -0.03758627 0.047092754
0.03030838 0.10834645 -0.028708484 -0.064369105 0.0982553 -0.09677415 0.06492977 -0.007536835
0.10381982 0.035586182 -0.07715043 0.054611765 0.03561523 0.02445279 -0.06704841 0.013448749
0.15492906 0.08353365 -0.015018276 0.16243586 -0.034127448 -0.009310532 0.0020493842 -0.06859087
-0.07003757 -0.009426322 -0.05354704 -0.03797092 0.01130128 0.004148876 0.08071483 -0.06624779
00000000: e7da bb3d d01e 09bc 69f4 523d 7d24 363d
00000010: 2620 073c 900d 48bd 8293 433c f82d 123d
00000020: e3d5 033e 4d0b d53c 7aa6 88bd 9767 80bd
00000030: 8993 14bd 6d93 0abc bbc8 93bc b40f db3d
00000040: efbb 1bbd 4f3a 883d 1536 61bc 1629 563d
00000050: e376 7b3b e1f9 883d cb9f 9c3d 4a0a b13d
00000060: 48d3 933d 76e7 acbd 9f54 943d 8d9b 193c
00000070: 4915 063d 2f28 973c 8df5 833d 81c1 5cbd
00000080: 3eb9 003e daba 833c 5cfb 0b3e 9b5e 383c
00000090: 70d5 d73d 1400 3bbd 4727 173d 0e62 b73d
000000a0: 28e7 ab3c 8357 efbd 7b1b 94bd 3d01 63bd
000000b0: e364 4e3d dd53 7a3d 172e d7ba 5d7d a1bc
000000c0: a878 01bc c9e7 173c d2b4 933d 2b33 4bbd
000000d0: b952 7ebc 71ca df3b c6fc 9a3c 2ced 8cbd
000000e0: 2645 3f3c 5075 bdbc 582e ec3d 0eec 27bd
000000f0: 7122 a7bc eec9 213e 4a33 1cbd e630 793c
00000100: 7b2f 76bd 98e2 353c 4027 95bd c5df 9e3c
00000110: 9962 46bd f2f0 6e3d a6fb 5abc 2042 57bd
00000120: 720b 533d e232 363d fde4 e23d fdc3 e43c
00000130: 2b5b 403d c5e2 e23d 3c4e cdbd 2ad8 15bd
00000140: 5e67 d43c 80dc 5a3d f6cc 9b3c 8ae6 abbd
00000150: 593e 283d 4a8c 9ebd c773 103e 7a2b 40bd
00000160: 7384 62bd 22db c53d 41b5 863d ba83 923b
00000170: b169 2e3c bc0a 973d be05 67bd ffab 0cbb
00000180: 8b6b 22bc 0fb5 233d 2117 e7bd da7a 893d
00000190: 614c 3bbd 746d 88bd 6399 8a3d eba7 89bd
000001a0: 0b5f dcbb 8de1 c8bc 1d28 ba3d 4212 c3bd
000001b0: d23c 68bc f8ed 233c 5303 b83c 9d5a 6fbc
000001c0: b7ce 10bd 736b a939 bfee 21be a4f7 05bd
000001d0: 62e2 8abd c49d 963d 6d52 8c3c 7e3d 1fbd
000001e0: c103 d93d 9c5b 6cbc 2246 46bd 7388 c03c
000001f0: a2cc debd 6cde 1fbd 4fd8 48bd a084 ea3c
00000200: 8855 393d c990 9abc dccb 043d 82a1 783d
00000210: 1e54 6cbc 50f0 3abb 258b f53c 80b5 81bc
00000220: bde4 993b 578d 80bd fa5d 86bd d7ab 743c
00000230: 9573 163d bb63 8ebd 9cd4 0bbd e266 a63d
00000240: 2b04 a4bd 27c3 273d 783f 8dbb 39ce aabd
00000250: 897b 6dbd 3e51 d8bd fd64 603c 7d95 4f3d
00000260: 28c5 24bc 81d5 b63c d291 1c3e a9a0 0cbd
00000270: 5b15 82bd 2a38 b83c e60d e63b c8e3 70bc
00000280: 8084 b9bd b86c 13b9 06f6 c7bd 3031 73bd
00000290: 7d78 66bd 3ef2 f8bc 5629 bd3d ebc0 e3bd
000002a0: cc21 afbd f974 18bd d0ca 9f3d a8bd e6bd
000002b0: 9874 33bd 7e68 b03d b608 ae3c beba d9bd
000002c0: 712e f63b bddf 1ebd f6b1 e6bd a46a 893d
000002d0: 2bcb 8cbb a127 003d 8add af3c b111 023e
000002e0: 7dc2 853d 9f9e 073e 43ef 353d dc32 6fbd
000002f0: c364 a9bd 0d9a 243c 8a69 24bd 6c5f 11bd
00000300: 575f 083e e929 313c 2914 7c3d 33d6 c6bc
00000310: 0244 f93c 6cbd 273c 141d 70bd aa76 e13d
00000320: 118b db3c dc6f 1dbe 0b2d a93c dc98 123c
00000330: 8dda 7dbd 40c2 a23d 02ba 4fbd e5da eabc
00000340: 0d8d 823d a54e fdbc 24c0 b4bc 43fd 453d
00000350: 9bae c83d 615a a7bd 8daf 873c 57b1 893d
00000360: 62e9 6239 43b2 a03d b235 9e3d 87ab b43d
00000370: f512 4b3d 9723 37bd 10f4 19bd 55e4 403d
00000380: 4849 f83c bee4 dd3d 0e2e ebbc f3d3 83bd
00000390: 133a c93d 8731 c6bd e6f9 843d 8ef7 f6bb
000003a0: 7c9f d43d d1c2 113d 0b01 9ebd 96b0 5f3d
000003b0: 47e1 113d 3851 c83c ad50 89bd 2458 5c3c
000003c0: b9a5 1e3e b113 ab3d 370f 76bc 9655 263e
000003d0: 39c9 0bbd 348b 18bc f64e 063b 5f79 8cbd
000003e0: dc6f 8fbd dc70 1abc 2454 5bbd 6587 1bbd
000003f0: 0129 393c 4bf3 873b d14d a53d ecac 87bd

fc2.bias f4 [10]
0.033088855 0.017096076 0.09400454 -0.048171222 -0.037354928 -0.07840473 0.13944657 0.009954311
0.06423984 -0.009848224
00000000: 2e88 073d 120d 8c3c 7485 c03d 304f 45bd
00000010: 7b01 19bd a992 a0bd 15cb 0e3e 6817 233c
00000020: 2d90 833d 725a 21bc
