modelMnist.pth (torch_old, 934108 bytes, 8 tensors)

conv1.weight f4 [20, 1, 5, 5]
00000000: f59d b2bd 1afa 1fbe 01e2 6c3d baa8 2fbe
00000010: 703f 00be 4701 63be 9c47 89be 59c8 6bbd
00000020: 7ab8 f5bd caef a93d 5fd2 03be 3034 573d
00000030: 405d 45be fbd0 71bd 412a 503e b28f f43c
00000040: 23cd 6a3e 5ddf ea3d 6560 9a3e f09c 2e3e
00000050: 9611 393e b842 843e 4568 823e 7f5e 8c3d
00000060: 3771 b9bc 748d febc 880b 2e3e 3164 e2bd
00000070: a87e 06be ec40 55be 623e bc3d 7a15 0bbc
00000080: e65c 863d 123a 103d 6a04 b93d eee7 fc3d
00000090: 65bb cd3d 22b1 883e 47c5 90bc 3b1f 60be
000000a0: d36c 643e d10b 723d af35 9d3e 1bf0 f8bd
000000b0: 4cec 88ba 1b18 a9bd 235a d73d 7132 c63d
000000c0: 8677 2b3e 69cf 433e 1cbc 1e3e 7b82 d33d
000000d0: b815 363e 17a3 11be e19f 3bbe bf51 973e
000000e0: b884 a93e f7ab c43e bcd9 ac3e fd56 463c
000000f0: 3db7 513e 00d5 93bc 9181 cc3e fa1e 813e
00000100: 1e83 693e 3fd7 cd3d 556c 3abe d422 c0bd
00000110: dc3e 193e 1f7e 2b3e d38c 66be d006 75be
00000120: 3e29 94be e87b d23d d1cd d7bd 7dd3 3d3e
00000130: 56a3 e7bd e2d0 013e c3fc 083e a8a2 4ebe
00000140: 9b20 3a3d 3690 b03d bb60 eebd 69dd 04bd
00000150: a993 78be dcc8 343e bb63 843e cb5a a2bd
00000160: 5d95 0ebe 4e8e e23d 33df 2c3e dd76 8c3e
00000170: aebe b7bd 87e3 09be 1ae3 af3d aa17 483e
00000180: 5133 823d 8910 9c3d 84c2 01bd 8886 af3d
00000190: cb9d b2bd c542 14be 50bd b3bd 6a7c acbd
000001a0: db55 9e3d 2e57 d53d 8962 2abe 4d70 04be
000001b0: 904d 633e d280 7c3e 4866 abbd 079d c1bd
000001c0: 8dfa fa3d 9cf0 5d3e 33ba debd 00bc 89bd
000001d0: 8dcd e23d d89a debd 2be8 1b3e da46 72bd
000001e0: e2d9 b3bd 6999 d83d 14aa 3bbc 4770 2a3e
000001f0: f2d4 333d 4bb7 20bd ca68 b73d 9acc 88bd
00000200: 0100 d9bc a5b0 3dbe 4788 46be 9f9e e43c
00000210: 038d 1dbe 4e04 9bbd fa7d 20bd 5f00 dcbd
00000220: 74b2 18bc ff0f fdba 5d16 1dbe 9e6e 1a3e
00000230: 1493 02be 0d6c fd3d e33b adba fa9c 8dbd
00000240: c10e 4fbd 21c3 55be 5ceb 02be 4dc0 45be
00000250: cb83 613e 762b 87bc e4db 49be 9968 14bd
00000260: d36a f33c 708b 41be 5a99 1dbe aed5 5abd
00000270: eb59 c33c 964f bf3d 45fe 3ebe 236b 27be
00000280: 0c01 383e ec68 0f3e 8217 1fbe 319e 1f3e
00000290: 969d 323e 9960 47be 73b4 a23d 3966 0ebe
000002a0: 5562 2bbe 43ef 92bc a2c5 10bd 8bf5 2cbe
000002b0: 2faa 93bd ff51 ca3d 7dc4 553e 9622 16be
000002c0: 71ac 3abe d322 b9bb 1470 b4bd 029f d0bd
000002d0: f098 adbd cb1b 0abe e4e6 78bd ee0c 46be
000002e0: 24a0 99bd cb36 0dbe b3ff 4f3d ee99 b73d
000002f0: 93fb a23c 7112 09be d60d 2ebe d80b 22be
00000300: 2810 eb3d 0e99 b9bd d042 123e 59e7 f33c
00000310: 60d8 0f3e 37c7 3c3e 7bb1 f7bc 2087 e6bd
00000320: 600f 9abd 01b5 10bd 4ab9 653e 5b46 1e3e
00000330: 4916 bfbd 7993 243c 60f3 0a3e b8d3 103e
00000340: 2476 f1bc 3915 a73d e3f0 db3d 9353 843d
00000350: a782 42bd c52e 053e c79b b4bd 43eb 523d
00000360: 6787 a93d bd28 31be f196 363c 6953 2f3d
00000370: bb7c 263e 32e5 063e a412 34be 5ccc b2bd
00000380: 5773 04be 6115 7c3e 9569 95bd 2f8b 1dbe
00000390: dff8 2fbe 4e84 c23d 3bf7 07be d96e 26be
000003a0: 8e1a 283d 32ac 1dbe 7ffb 663e ae91 c4bc
000003b0: c463 1b3d d1b7 bdbd 6354 243e c143 c53e
000003c0: 533c 963e b78e 263e 1ef0 833e 1401 da3e
000003d0: 1385 9d3e f8b5 2b3e 4a1f b33e 1a61 bb3e
000003e0: 33c6 d93c 55f6 1e3e 1ade 12be 1a75 f1bd
000003f0: 8f47 24be ad3e 233e a563 383e c4bf e1bd
-0.08721534 -0.1562275 0.05783272 -0.17154208 -0.125242 -0.22168456 -0.26812446 -0.057564113
-0.11998077 0.08297689 -0.12873219 0.052540004 -0.19273853 -0.05903719 0.20328619 0.029853676
0.22929816 0.114683844 0.30151668 0.17052054 0.18073115 0.25832152 0.25470176 0.06853961
-0.022636993 -0.03107331 0.16996586 -0.11054266 -0.13134253 -0.20825547 0.09191586 -0.008489007
0.06560688 0.03521163 0.09034045 0.123489246 0.10045508 0.26697642 -0.017672194 -0.21886913
0.22307138 0.0590933 0.3070502 -0.121551715 -0.0010446399 -0.08256551 0.10515239 0.0967759
0.16744813 0.1912209 0.15501446 0.103276215 0.17781723 -0.1422237 -0.18322708 0.29554555
0.3310907 0.3841245 0.33759868 0.012105701 0.20480056 -0.018045902 0.399426 0.25218946
0.22803923 0.100508206 -0.18205388 -0.09381643 0.14965385 0.1674733 -0.22514658 -0.2392838
-0.28937715 0.102775395 -0.10537303 0.18537708 -0.11310451 0.12677339 0.13377671 -0.20179236
0.04544125 0.08621256 -0.116395436 -0.032437716 -0.24275078 0.17654747 0.25857338 -0.07927474
-0.13924165 0.11062299 0.16882019 0.27434435 -0.08971916 -0.13465701 0.08588238 0.19540277
0.06357444 0.07620341 -0.031679645 0.08570582 -0.08721503 -0.14478596 -0.08776343 -0.084221676
0.077312194 0.10417019 -0.1663915 -0.12933464 0.22197556 0.24658516 -0.08369118 -0.09453779
0.1225482 0.21673816 -0.108753584 -0.06725311 0.11074362 -0.10869378 0.15225284 -0.0591496
-0.08781792 0.10576136 -0.011454124 0.16644393 0.043904252 -0.0392373 0.08955534 -0.0667965
-0.02648926 -0.18524416 -0.19387923 0.027907668 -0.15385823 -0.075691804 -0.03918264 -0.10742258
-0.00931989 -0.0019307135 -0.15340562 0.1508126 -0.12751418 0.12374125 -0.00132167 -0.069147065
-0.05055118 -0.20875217 -0.12785095 -0.19311638 0.22022931 -0.016500216 -0.19712788 -0.036232565
0.029714024 -0.18900847 -0.1539053 -0.053426437 0.023846587 0.09341352 -0.18651684 -0.16349463
0.1796915 0.14004868 -0.15536311 0.15587689 0.17442927 -0.19470443 0.07944574 -0.13906182
-0.1673673 -0.017936355 -0.035344727 -0.16890542 -0.07210194 0.09878921 0.20875736 -0.14661631
-0.18229844 -0.0056499033 -0.0881044 -0.10186578 -0.08476436 -0.13487165 -0.06076707 -0.1934087
-0.075012475 -0.13790433 0.050780963 0.08964907 0.01989535 -0.13385941 -0.16997465 -0.1582483
0.11477691 -0.09062396 0.142833 0.029773401 0.14047384 0.1843537 -0.030235996 -0.11256242
-0.07522464 -0.03532887 0.22433963 0.15456526 -0.093304224 0.010044926 0.13569403 0.14143264
-0.02947528 0.08158345 0.10739305 0.06461253 -0.04748788 0.13006122 -0.08818775 0.051493894
0.08277779 -0.17300697 0.011144386 0.042804155 0.16258518 0.13173369 -0.17585236 -0.08730385
-0.12934624 0.2461753 -0.07295529 -0.15385126 -0.1718478 0.09497891 -0.13277905 -0.16253223
0.04104095 -0.15397719 0.22556876 -0.023995247 0.03793694 -0.09263576 0.16047816 0.38528255
0.293429 0.16265379 0.25769132 0.42578948 0.3076559 0.16768634 0.3498481 0.3659752
0.026583767 0.15523656 -0.14342538 -0.117899135 -0.16042922 0.15941878 0.18006761 -0.110229045

conv1.bias f4 [20]
00000000: 81ee 90bd b8b5 f4bd ea70 193c 7e40 54bc
00000010: a05d 1fbe d665 d43c 431e 2bbe 52ae d53d
00000020: 536c 0c3e 5a0a 1e3e 1ef7 0b3e 8bd6 42bd
00000030: ce7f 883e a10d debd bb6f ffbc 82fc 4c3e
00000040: 4ee1 173e 2081 3e3e 2f00 123e e178 7dbc
-0.07076741 -0.119487226 0.0093653 -0.012954829 -0.15563059 0.025927465 -0.16710763 0.104336396
0.13713197 0.15433636 0.13668486 -0.047567885 0.26660007 -0.10842443 -0.031181207 0.20018199
0.1483204 0.18603945 0.14257883 -0.015470714

conv2.weight f4 [50, 20, 5, 5]
00000000: 6d79 ce3b af23 e4bc 99af 313c c131 1ebd
00000010: 5edd ff3c cff2 b2bc d298 24bd 18db 823c
00000020: 3f91 b7bc 8859 a4bc f513 943b 6819 c8bc
00000030: 4d1b 0abd 455a 16bd e6f2 29bd 4151 fdbc
00000040: cc22 a8bc ebc1 6bbb 477c 1cbd 99f6 15bd
00000050: 278f cfbc 2f1b a73c ba77 90bc 8c60 4dbd
00000060: c3f8 dfbb 4816 b3bc 6f40 f2bc 078b 123d
00000070: 519d 5a3d a4ef 0e3d 289c 933a c710 0fbd
00000080: 9dc3 08bd d5cb 53ba 7d49 d23c 3b39 8abc
00000090: 21aa f83b 8d68 1fbd 1076 543c 7fd1 2d3d
000000a0: c3c0 193d 28ac e63c e299 c63c 5775 f63b
000000b0: 84ee 6a3d 40cb 0fbd a508 e3bc 3f98 a1bc
000000c0: 9f11 0abc 91d5 46bc 6787 41bc 7c3b 4bbd
000000d0: c402 b7bc 9528 103d 0f6d 38bc 4a85 20bd
000000e0: 2ec1 7d3b 1a72 8fbc f5fe f33c b676 22bd
000000f0: 5d0f 323d 61e8 9cbc ca08 073c 0e8f 90bc
00000100: cfaa 123d c7b1 fd3c b50c c93a 55f4 bf3c
00000110: 11de a93c 7c59 5f3d 024e a93c cee0 81bc
00000120: dd8a 2fbc 9124 363b 2c38 073c 67b5 4ebd
00000130: 3cc2 0fbc 7c0f 2bbd 1bee f4bc 1cf3 2abb
00000140: 137f f43c 3390 dc3c 96cd 12bd ad92 583c
00000150: de2e 663c 1c98 ee3c d57b 7e3c 2114 42bc
00000160: 1cd4 a7bb 2df4 473c 29ef d53c 5617 ab3c
00000170: da50 28bd 2588 09bc 088a fc3c 19c6 a73c
00000180: 4163 9b3c 4905 c13c 26e6 23bd 2d7f efbb
00000190: e545 063d 0230 533b afa7 2c3c ff74 b73c
000001a0: 862d 333c 7274 af3c 0335 8c3c d5db 923b
000001b0: 130e 1cbc 0c7f 64bc 241b 73bb 3f12 2f3c
000001c0: 9b68 47bc e5b2 29bc b6f0 a7bc 7bbd dc3b
000001d0: aea1 f53c 625d 443d 4d40 023c b349 d93c
000001e0: c6aa 253d 3226 40bd 107f 75bb 05c6 c6bc
000001f0: bc77 0fbd dac0 03bd a0fe 2c3d c5b5 ddbc
00000200: 48cd 303d fab4 c6bc 28a7 973c 429e 123d
00000210: b16a 87bb bfe0 733c f405 e3bc 64c8 d83c
00000220: 08f7 5c3b 9294 19bd 6379 4fbc 8c5a 863b
00000230: 42b2 f8bc b4ca c6bc d48f 25bd 9f3f 10bc
00000240: aaa6 803c b899 a1bc fc75 2abd 6a10 2dbd
00000250: fe66 ea3c 3b80 20bd d97f 2abc c12f 1dbd
00000260: fba6 d63c 9576 ec3c c854 183d 3052 ec3c
00000270: 63b8 883c bc63 fb3c 18ad afbc 5ef0 f03c
00000280: 4243 a6bc a5ca 023d 8783 fc3c 3da4 a23c
00000290: 7d1a 0fbb 670a bf3c 38a7 10bd 3497 48bd
000002a0: 0c3d f3b9 5cc4 e73c eb60 843c aa7f 003d
000002b0: 4da4 d7bc a352 dd3c 6b61 c4bc d106 893c
000002c0: ab43 f53c 252d 513c 4f64 e83c dc50 72bc
000002d0: f978 833c e24f cebc 14ba 3ebd 02e2 1dbd
000002e0: 9afc 253c 638f f43c cd05 e6bb 60dc 43bd
000002f0: d3af 3abd 4a9d 07bd 154b 2d3d ff50 29bd
00000300: cec3 07bc 4366 a43b 48a0 843c fc10 bc3b
00000310: 14c0 58bb fe3c 993c e4b3 3b3a 4727 a73b
00000320: 0a78 6bbc ac39 bcbb 05ab b73b f64b f6bc
00000330: 4655 3c3c 5c2d 7fbb 4c33 7cbc 9b60 163d
00000340: 075a 803c 1952 aabc f9ce 043d e901 59bc
00000350: d188 233b 687f d13c 2cb9 e83b a8c5 f6bb
00000360: 5dcc 9abc 15b8 d33c a5f3 dfbb 4a07 bc3b
00000370: 25dc 033d 2e50 263d cff5 01bd 9d03 e43b
00000380: ac8b d7bc aeec 6dbb a8e7 49bd 6e6f 503d
00000390: 8574 d4bc 1b03 043c f195 223d fd6a 26bd
000003a0: ac81 4b3d c796 b7bc 1763 a5bc ac64 77bc
000003b0: 1650 19bb 1281 c1bc b24d f5bc 0b6f 51bd
000003c0: 0b75 edbc ad12 6ebd c00d 7fbd ddba 273c
000003d0: 32da ef3b 091f e53c 962c 93bd 0690 823b
000003e0: 8a92 95bd 2c20 1cbc 493c 103c e3e1 a03c
000003f0: 739a bf3a d87b faba 91ed 563c 929c 27bc
0.006301096 -0.027849047 0.010845088 -0.038621668 0.031233486 -0.021844296 -0.040184803 0.015973613
-0.022408126 -0.020062223 0.0045189806 -0.024426177 -0.033717442 -0.03670718 -0.04149141 -0.030922534
-0.020524405 -0.0035973738 -0.038204458 -0.036612127 -0.025336815 0.020398704 -0.017635215 -0.050140902
-0.0068350746 -0.02186121 -0.02957174 0.035777118 0.053372685 0.034896508 0.0011261748 -0.03492811
-0.033389676 -0.00080793846 0.025669808 -0.016872993 0.0075886403 -0.038918067 0.012967601 0.04243612
0.037537348 0.028158262 0.024243299 0.007521312 0.057356372 -0.035105944 -0.027714083 -0.019725917
-0.008427053 -0.012135879 -0.011812068 -0.049617276 -0.022340186 0.035194952 -0.01125647 -0.039189614
0.003871988 -0.017510463 0.029784659 -0.039663993 0.043471683 -0.019153776 0.008241842 -0.017646339
0.035807427 0.03096856 0.001533887 0.023431936 0.020735772 0.0545287 0.02066708 -0.015854266
-0.01071426 0.0027792791 0.0082531385 -0.050465968 -0.008774336 -0.041762814 -0.029898694 -0.0026084846
0.02984575 0.026924228 -0.035840593 0.013218564 0.01404926 0.029125266 0.015532454 -0.011845619
-0.005121721 0.012204212 0.026115017 0.02088515 -0.04109273 -0.008394276 0.030827537 0.020480203
0.018968226 0.02356209 -0.04001441 -0.0073088617 0.0327815 0.003222466 0.010538026 0.022394655
0.010936147 0.02141783 0.017115122 0.0044817724 -0.00952484 -0.013946306 -0.0037095034 0.010685503
-0.012170936 -0.010357593 -0.020500522 0.006736455 0.029984321 0.04794062 0.007949901 0.0265244
0.040446065 -0.046911426 -0.0037459768 -0.024264345 -0.035026297 -0.03216634 0.042235017 -0.027064214
0.04316452 -0.024256218 0.018512323 0.035795458 -0.0041325917 0.014885127 -0.0277128 0.026462741
0.0033716578 -0.037495203 -0.012663218 0.0041001495 -0.030358437 -0.024266578 -0.04042037 -0.008804231
0.015704472 -0.01972662 -0.041616425 -0.04225198 0.028613564 -0.03918479 -0.010406458 -0.03837562
0.02620267 0.028865138 0.03719023 0.028847784 0.016689485 0.030687205 -0.021444842 0.029411491
-0.020295743 0.031931538 0.030824436 0.019853706 -0.0021835857 0.02332039 -0.035315722 -0.048972324
-0.00046394055 0.028291874 0.016159495 0.03137175 -0.026323462 0.027016943 -0.023972234 0.016726883
0.029939493 0.012767111 0.028368143 -0.014789786 0.016048895 -0.025184575 -0.046564177 -0.038545616
0.010131026 0.029853528 -0.0070197345 -0.047817588 -0.045577835 -0.033108987 0.042307932 -0.04133701
-0.00828643 0.0050170734 0.01618971 0.0057393294 -0.0033073472 0.018705841 0.00071602897 0.005101118
-0.014371881 -0.0057441797 0.005605104 -0.030065518 0.01149494 -0.0038936948 -0.0153930895 0.036713224
0.015667928 -0.0207911 0.032423947 -0.013245084 0.0024953375 0.025573447 0.0071021523 -0.0075308867
-0.018896276 0.025844613 -0.0068344646 0.0057381736 0.032192368 0.04060381 -0.031728562 0.0069584385
-0.026311718 -0.0036304402 -0.04929319 0.050887518 -0.025934467 0.008057381 0.039693777 -0.040629376
0.04968421 -0.022410763 -0.020188851 -0.015099686 -0.0023393682 -0.023621116 -0.029944275 -0.05113129
-0.028986474 -0.05812328 -0.062268972 0.010237423 0.007319712 0.0279689 -0.071862385 0.003984454
-0.07303341 -0.009529155 0.008803436 0.019638961 0.0014618173 -0.0019110395 0.013118164 -0.0102302

conv2.bias f4 [50]
00000000: 11e5 943c 4de3 08bd 0da8 94bc 713e e83b
00000010: 466a f2bc 067b ac3c c09c 9abc bf9a 213d
00000020: 3a0c 303c a0a4 dcbb 233a 0dbd 84b3 ab3c
00000030: dcdd 17bd d1b6 14bd 17b6 133d ca28 df3c
00000040: bcda a33b f0e2 ca3c f2e9 3ebc 53b8 54bc
00000050: f144 b63b 2df1 e53c 73ca eebb 112c 50bd
00000060: 4158 c83b 67ae 993c 8042 30bd e181 813b
00000070: 1ab8 f23c 7f08 2abd f855 14bd 1eff b53b
00000080: d631 243d 4d5f 0abd acac 97bc 5805 8d3b
00000090: 333d 403c 5824 303d 38b9 92bc 4500 4b3c
000000a0: ca09 a1bc 09e3 e4ba 8767 293d 914d e43c
000000b0: 3b50 803c 8945 9e3c 8b32 1fbd 7d4a 1dbc
000000c0: 54e6 273d de31 95bc
0.018175634 -0.033419896 -0.01814654 0.0070875217 -0.02959169 0.021054756 -0.018873572 0.039454218
0.010745103 -0.006733492 -0.03447927 0.020959623 -0.037076816 -0.03630716 0.036062326 0.02724113
0.0050004404 0.024766415 -0.011652457 -0.012983399 0.0055624177 0.028069103 -0.0072873174 -0.050823275
0.0061140363 0.01875992 -0.04303217 0.0039522504 0.029628802 -0.04151201 -0.0362148 0.005554094
0.04008659 -0.033782292 -0.018514954 0.0043036155 0.011733341 0.04300341 -0.017910585 0.012390201
-0.019657988 -0.0017462681 0.041358497 0.027869018 0.015663257 0.019320266 -0.03886656 -0.009600279
0.040991142 -0.018212255

fc1.weight f4 [256, 800]
00000000: 396f f13c 56de 993c da5d a03c 5f02 98bc
00000010: faef 4dbc 66c8 f7bc 88ae 703c 41c5 ae3c
00000020: e3a6 94bc 47ed d8ba 78ad 36bc 761e 8b3c
00000030: 6ea0 2dbc 605f 433c 8002 8f3c 63b6 713b
00000040: 72da 9cbc 1576 d1bc 4db1 33bc e654 b63c
00000050: a6d6 b83c 2199 893c a5d9 a0bc f438 9dba
00000060: a5a2 2f3c 1dbe 223c 7e88 033c af75 94bc
00000070: a08b 273c 5243 08bc 653f 2dbc ff38 24bc
00000080: 61ce 9a3b 3089 c5bc cbd5 83bc 2207 a33c
00000090: c8a8 89bc e6c9 3dbb ca56 0bbd 5ffb fcbc
000000a0: 99f6 99bc a391 d3bc faf0 a53c 3866 a63c
000000b0: 05ec abbc f005 143c 29be 283d b8fd 593b
000000c0: 2f80 c7bc 9a52 003d b24b 4a3b 91d8 5dbc
000000d0: ef14 c83c 3116 b9bc cec8 8cb9 a57e b63c
000000e0: df75 6b3b 2cf3 15bc 863a f13b 7784 df3b
000000f0: 1174 e8bc 4d63 623c 1c13 73bc d046 56bc
00000100: 07f1 f1bc 8a82 d63c 8d38 bfbc c35b 32bd
00000110: e193 363c 1e2b 29bd c920 98bc a042 bebc
00000120: 9158 c7bc 757e acbc f683 c3bc 3c31 a73c
00000130: 6a33 ba3c 3bd1 6a3c 7ff8 e6bc 215d 533c
00000140: 7a12 89bc e7c2 b6bc 238d 5bbc 3901 83bc
00000150: 159f 3fbb e6f1 12bd 79be 313c 3ce9 eebc
00000160: dcc9 933c e4d6 8e3c 06f6 753c 3ee1 51bc
00000170: 1552 d53a 67f7 0bbd a140 ce3a 4ff2 68bb
00000180: cd94 883c e373 853c 1826 c93a 7306 943c
00000190: f378 28bb 4ce5 0e3d 6414 c6bc c3d0 93bc
000001a0: 72f6 f2bc ca11 82bc 9c4b 6f3c dbc6 debc
000001b0: 1fc0 44bc 7407 f5bc 02b9 6fbc d552 113c
000001c0: f42a acbc 3443 24bc 7c3c e2ba a652 0abd
000001d0: aba7 fb3c 186b 06bc ebe8 d03c bdc4 a2bc
000001e0: 940a 4abc a833 083d 5fd0 0a3d 5a17 f6bc
000001f0: e38c 233c 09ea f53c 1c74 533c 5ea4 61b8
00000200: e359 613c 70ea 443c c56d 17bc 38e7 3ebc
00000210: e1fe 473b fdf4 16bc 0166 853b 0cd9 6b3c
00000220: e49b 233d 9df8 a03b f405 193d a94d 043d
00000230: d00a 933c 889f c53c 7841 04bd a6cd 973b
00000240: 4ef4 cc3c 3e82 743c 7d81 32bc fb1b 20bd
00000250: 2647 9a3c 4fce dcbb 015f 873c 7f20 ce3c
00000260: 12d2 043d f006 923b 0823 96bc 1cae ff3c
00000270: 9a09 1c3d 8db9 91bc 68e5 a4bc ecfd 3ebc
00000280: 1661 60bb b463 113d 1b63 aa3c 1d46 14bd
00000290: 2b1d 503b 05f4 723c 27b6 31bc c4b1 29bc
000002a0: 7a6a 5ebc d6af f3bc 5947 333d 44ec c83c
000002b0: 0cdf de3c 7bb7 09bc 2915 21bd bbce 18bc
000002c0: 27dc 0f3d a27e b83c a646 cabc 1ab0 15bc
000002d0: b2d4 5dbc 53cf afbc bfce b7bc b3e7 b0bc
000002e0: fea5 f1bc 556a 0abc 1a3d cf3c e598 f23a
000002f0: a49d cc3b b18d 18bc 04cb 6a3c abf1 c13c
00000300: fcc0 9d3c b7f6 c03c bb84 91bc 222c dd3b
00000310: b15c a23a 6409 023d 3344 0fbd 48b9 933c
00000320: 6941 b93c 92af a43c 0bc4 bebc 6a3e f83c
00000330: 00ca ef3c 2536 c23c 9042 ce3b c55a f7bc
00000340: a118 21bc 84d8 473c f3de 02bd 0027 9f3a
00000350: a852 763a baf6 3d3c 62f7 3fbb 4727 c2bb
00000360: b876 bbbc 1fd7 853c 8683 75bc 579f bb3c
00000370: a690 debb 084e 033d 12fd 01bd 2f02 b3bc
00000380: 42f1 67bc 4366 b4bb 2a4f dd3c c4cc 473c
00000390: a20d a8bc 3a8c debc 8abb d83b 6b12 e83c
000003a0: 9b42 0abc b077 22bd e381 823c aecf a73c
000003b0: 30ff eebc 1517 0bbd 47e9 023c a43f 563b
000003c0: d691 f63c 1b97 9dbc 800b 2d3d 8d4a 803c
000003d0: a3f6 f33c 0f07 2f3d 0d34 163d f068 9bbc
000003e0: 85e2 d73c e442 063d b97f 143c e43d 3dba
000003f0: fc17 883c b187 cbbc 6dd1 bc3c 1f33 93bc
0.02947198 0.018782776 0.019576002 -0.018555818 -0.012569422 -0.030246925 0.014690049 0.021334292
-0.018145984 -0.0016550206 -0.011149757 0.016982298 -0.010597331 0.011924595 0.017457247 0.0036882393
-0.019147132 -0.025569001 -0.010967565 0.02225728 0.02256329 0.01679665 -0.019635031 -0.0011995123
0.01071993 0.009933022 0.008028148 -0.018122522 0.01022616 -0.008316832 -0.010574196 -0.010023355
0.0047243093 -0.024113268 -0.016093155 0.019900862 -0.016804114 -0.0028959452 -0.034018315 -0.030881582
-0.018794345 -0.025826281 0.020256508 0.020312414 -0.020986566 0.009034619 0.041196976 0.00332628
-0.024353115 0.031328775 0.0030867872 -0.013540403 0.024424044 -0.02259359 -0.00026852492 0.022277186
0.003592841 -0.009152215 0.007361713 0.006821211 -0.028375657 0.01381762 -0.014836099 -0.013078406
-0.029533876 0.026185293 -0.023342395 -0.043544542 0.0111436555 -0.041300885 -0.01857032 -0.023225129
-0.024334224 -0.021056393 -0.023866635 0.020409219 0.022729594 0.014332111 -0.028194664 0.012900622
-0.016732443 -0.022309734 -0.013400349 -0.015991794 -0.0029239107 -0.035875224 0.010848635 -0.02916395
0.01804059 0.017436452 0.01501227 -0.01281005 0.0016275073 -0.034171488 0.0015735814 -0.0035544818
0.016672516 0.01629061 0.0015346436 0.018069481 -0.0025706857 0.034886643 -0.024179645 -0.018043881
-0.02965853 -0.015877623 0.014605429 -0.027194431 -0.012008696 -0.02991078 -0.014631512 0.008869846
-0.021016575 -0.010025788 -0.0017260457 -0.033770226 0.030719599 -0.008204244 0.025501689 -0.019869203
-0.012331624 0.03325239 0.033890124 -0.030040432 0.0099823205 0.030018823 0.012906101 -5.379726e-05
0.013754341 0.012018785 -0.00924248 -0.0116518065 0.003051691 -0.009213683 0.0040709977 0.01439501
0.03994359 0.0049124495 0.037359193 0.032300625 0.017949492 0.024123922 -0.032289 0.0046326695
0.025018837 0.01492363 -0.01089513 -0.039089184 0.018832754 -0.006738461 0.016524794 0.02516198
0.0324269 0.0044563934 -0.018327251 0.031210952 0.038095094 -0.017788673 -0.02012892 -0.011657219
-0.0034237555 0.035495475 0.02079921 -0.036199678 0.0031755667 0.014828687 -0.010846651 -0.010357324
-0.013575191 -0.029746931 0.043769214 0.024526723 0.027205966 -0.008405562 -0.03932682 -0.009326632
0.035122063 0.02252132 -0.02469189 -0.009136224 -0.01353948 -0.021461165 -0.022437451 -0.021594858
-0.029498097 -0.008448203 0.02529769 0.0018508701 0.006244378 -0.009311126 0.014330629 0.023674807
0.019257061 0.023555143 -0.017763486 0.006749646 0.0012387243 0.031747237 -0.03497715 0.018032685
0.022614198 0.02010325 -0.02328684 0.030303199 0.029271126 0.023707459 0.006294556 -0.03019465
-0.009832532 0.012197617 -0.031950902 0.001214236 0.0009396472 0.011594469 -0.0029291739 -0.0059250924
-0.022883758 0.01633793 -0.014984971 0.022903128 -0.006792146 0.03205684 -0.031735487 -0.021851627
-0.014156641 -0.0055053546 0.027015287 0.012194816 -0.020514313 -0.027166475 0.0066141533 0.028329095
-0.008438732 -0.039664924 0.015931075 0.020484772 -0.029174417 -0.03395756 0.007990188 0.0032691741
0.030098837 -0.019237092 0.042247295 0.015660549 0.029780691 0.04273134 0.036670733 -0.018970937
0.02635313 0.032778636 0.009063655 -0.0007219 0.016613 -0.024844976 0.02304908 -0.017968712

fc1.bias f4 [256]
00000000: bc6c ef3c 410c 81bc e580 b5bc f2b0 943c
00000010: 8f44 5a3c 8f8f 4fbc 11f0 8ebc fa42 cf3c
00000020: 8a38 503b 2708 dbbb bbbf 01bd 6537 dc3c
00000030: 2067 2fbb 48d2 65bc d248 4ebc b164 ccbc
00000040: b2bd a5bc 853c 74bc 7aa5 903c 8902 513b
00000050: 5103 9b3c 5b20 033d 2f99 163b 4fc0 5f3b
00000060: e7a8 af3c 40a1 b03c ba0e c7bc c21c 02bd
00000070: 7cea d8bc 7016 9a3c 782a 0b3d b05f 9f3c
00000080: 3d91 03bd 3696 c4bb 2b82 c7bc 1b3e babc
00000090: b60d 70bc dc7e 093c ac0e c53c dfb2 ae3b
000000a0: c3d1 debc 0a38 9b3b 56ac b1bc f181 913c
000000b0: 98e7 09bd 77aa c53c 6991 bbbc a370 10bd
000000c0: 3642 d73b 221a d63b 9420 febc b6e6 bdbc
000000d0: 6522 d63c 8ae6 91bc 65d8 df3c 5a95 a13c
000000e0: da6f 33bc aee6 123d e1bf 063d ac2e 003d
000000f0: d53d db3c f013 82bc 3698 e6bc 6c1e 963c
00000100: f15d a33c 93ac 083d ff9a ebbc 0c55 a33c
00000110: d854 f2ba c18b 1b3c 2e74 bd3c 74a7 a53c
00000120: 6b52 cc3c 20df 643c a0d4 583c 9083 033d
00000130: ff0a e43c 1517 92bb 9061 4abc efcd c73c
00000140: 61f8 69bc 4f29 74bc 7acb f3bc 5cc3 5bbc
00000150: a2a8 a7bc 6135 32bc 2f3f a8bb f1a9 ba3b
00000160: 8916 3abc 4cc6 a1bc f796 e13c 608d f03c
00000170: 4131 be3c 3c18 eb3c 90c8 f33c 58c0 083b
00000180: 970b a23b 0c49 b1bc 730e 093d 850e 253b
00000190: 6fda a53c a3de 813c 8c5a 093d e8f6 233c
000001a0: 4569 053d 311f 45bb 833a b8bc 6a35 723a
000001b0: 4f19 d1bc 8788 61bc 22c7 d8bc fb02 753b
000001c0: a9cd e6ba 54a1 9a3a febb b6bb 1a57 733c
000001d0: d51c 97bc 6c37 a6bc 7d6c c13c 71d4 023d
000001e0: 90df d73c 9d17 6d3c 07df 893c 0e9a e9bc
000001f0: 4cbc 1ebc a9e2 9b3c ca29 3fbc f203 10bd
00000200: 7a98 c6bc 4cd0 783c d4fb 463c b7be adbb
00000210: 6197 e0bc 141e bbbb ee79 01bd 7e60 3ebc
00000220: ca57 53bb 8968 9cbc a4a7 b73c 9059 c7bb
00000230: f1ae 0f3d c7f2 cf3c 0744 03bc 5822 f83c
00000240: cce0 b9bc f6dd f53c 989e 43bc 1307 123d
00000250: 73a6 8a3b 2927 a2bc d47f 533c d700 ee3c
00000260: da6d fb3c e89a 11bc e104 d23c ce1b 07bc
00000270: d866 cbbc 0151 04bd 59ce fc3c 082a f2bc
00000280: 10ee 4f3c df7c f73c aec3 b43c 9f26 023d
00000290: ba1d 30bc 1afe d6bc a1e1 8abc 507b 263c
000002a0: 0d8d 483c 27e7 c83c e435 e2bc 49cc fc3c
000002b0: 2772 a23c 4289 fbbc 6611 553b 4e4f 01bd
000002c0: f955 b0bb 09cc 16bd 2e9d 8fbc dab4 c13b
000002d0: 619d cfbc 66fd b83c 4a06 d9bc 054a e43c
000002e0: 3dcd 593c 5ffe cbbb 950e bab8 13d9 af3c
000002f0: c19f bcbc 260f d03c abc0 ca3c d57f 123c
00000300: ead2 aebc 5792 ca3c d835 71bb 2afb 8f3c
00000310: 64e9 c73c c8f7 783c d8f7 f73c f872 5bbc
00000320: 94ea 07bc c7b1 593c 231c cfbc 1238 e4ba
00000330: 724b e43b e5bc aebc bb9c 07bc 1b57 153d
00000340: f656 b5bc 3ae8 583c b237 b9bc 68f1 513a
00000350: a309 383c 0101 2e3c 9c44 e43c 1b51 f23c
00000360: ba72 70bc 2198 ddbb eb47 903c 6c7c c13c
00000370: b688 80bc ef2c 083d bcd7 103c 5e26 fe3c
00000380: de74 0c3c 26a3 25bc 2947 4e3c d48a d13c
00000390: bf0b 053c 716f 2bbb 4e7d d03c e2de 0dbc
000003a0: 3bfe 063d 4771 13bd 40ed bb3c a2c2 473c
000003b0: 269a 6ebc 1c1f 483c 5e42 9c3a ba92 9c3c
000003c0: dfa5 bc3c b1aa 573a 04ab 603c 7fea 0e3d
000003d0: aa03 dfbc a76f ad3c 4d37 d8bc 6545 5d3a
000003e0: 40f5 28bc fec8 11bd e69e 0f3c 62e0 b43c
000003f0: 1765 ae3c 843a c63b 57b4 0c3d c419 163d
0.029226653 -0.015752913 -0.022156188 0.01815078 0.01332201 -0.012668504 -0.017448457 0.025300492
0.003177198 -0.0066843214 -0.03167699 0.026881883 -0.0026764348 -0.014027186 -0.012590604 -0.024950357
-0.020232055 -0.014907007 0.01765703 0.003189238 0.01892248 0.03201328 0.0022979488 0.0034141724
0.021442844 0.021561265 -0.024299014 -0.031765707 -0.026478998 0.018809527 0.03397605 0.019454807
-0.032120932 -0.005999352 -0.024354061 -0.022734692 -0.014651706 0.008392062 0.024054848 0.0053313817
-0.027199632 0.004736905 -0.021688621 0.017762156 -0.03366813 0.024129136 -0.022896485 -0.03526367
0.0065691723 0.006533877 -0.031021394 -0.0231813 0.026139447 -0.017810125 0.027324865 0.019724537
-0.01095196 0.035864525 0.032897834 0.03129451 0.026762882 -0.015878648 -0.028148752 0.018325053
0.019942256 0.033367705 -0.028760431 0.019938014 -0.001848842 0.009493769 0.023126688 0.02022145
0.024941644 0.013969213 0.0132342875 0.03210789 0.027837275 -0.004458318 -0.012352362 0.024390189
-0.01428041 -0.014902427 -0.029760111 -0.0134132765 -0.020466153 -0.010876984 -0.005134485 0.005696528
-0.011357912 -0.019747876 0.027537806 0.029364288 0.023216845 0.02869808 0.029758722 0.00208666
0.0049452293 -0.021641277 0.033461045 0.0025185656 0.020245759 0.015853232 0.033533618 0.0100075975
0.032571096 -0.0030078406 -0.022488838 0.00092395267 -0.025524763 -0.013765461 -0.026462141 0.003738581
-0.0017608899 0.0011797347 -0.0055766096 0.01485231 -0.018446365 -0.0202901 0.023611302 0.03194088
0.02635172 0.014470962 0.01682998 -0.028515842 -0.009688448 0.019028978 -0.011667678 -0.035160013
-0.024242628 0.015186381 0.012145001 -0.005302276 -0.027415933 -0.0057103727 -0.03161042 -0.011619685
-0.0032248371 -0.019092815 0.022418804 -0.0060836747 0.035078947 0.02538432 -0.008011824 0.030289814
-0.0226902 0.030013066 -0.011939667 0.035651278 0.004231268 -0.019794064 0.012908895 0.029053135
0.03069203 -0.00888703 0.025637092 -0.008246375 -0.024829313 -0.032303814 0.030860113 -0.029561058
0.012691036 0.03021091 0.022065964 0.031775113 -0.010749275 -0.026244212 -0.016953291 0.010161236
0.01224066 0.024524285 -0.027613588 0.03085913 0.019829823 -0.030705098 0.003251159 -0.03156977
-0.0053813425 -0.036815677 -0.017531004 0.0059114518 -0.025343599 0.022581767 -0.026492257 0.027867327
0.0132935615 -0.0062253918 -8.871887e-05 0.021465814 -0.023025395 0.025397848 0.024750074 0.00894161
-0.021340806 0.024727983 -0.0036805775 0.017575819 0.024403282 0.015195794 0.030269548 -0.01339411
-0.008295674 0.013287014 -0.025281971 -0.001741173 0.0069670016 -0.021330306 -0.008277114 0.036460023
-0.022136193 0.013238961 -0.022609565 0.00080086896 0.011232766 0.010620357 0.027864747 0.02957969
-0.01467579 -0.00676252 0.017612418 0.0236189 -0.015690189 0.033245977 0.008840498 0.031024154
0.008572785 -0.010109698 0.012590208 0.025578894 0.008120476 -0.0026158954 0.025450375 -0.008659096
0.032957297 -0.0359967 0.022940278 0.0121924 -0.014563119 0.012214448 0.0011921634 0.019112933
0.023028312 0.0008227034 0.013712648 0.0348916 -0.027223427 0.021171404 -0.026393557 0.00084408215
-0.010312378 -0.03559207 0.008765912 0.02207965 0.021288438 0.006049456 0.034351673 0.036645666

fc2.weight f4 [10, 256]
00000000: e2b3 c63d ccbc 543d 3b64 19bd 6a61 053d
00000010: 1a5a cfbc cf53 253d 0100 67bc 85e4 9dbc
00000020: f70f 683d b438 9abd 0a56 0fbd 8e67 213d
00000030: d7b6 793d b118 89bd d632 823d 7c77 713c
00000040: 8c81 343d 51b9 0cbd 0873 e03d 2d03 c5bc
00000050: 224f 43bd 1aa6 c13c 50a2 4dbd 66b2 8cbc
00000060: 4cc1 afbc ceef 44bd 29a2 9b3d 3d4a 213d
00000070: abd0 95bd 9c08 39bd bca3 77bd b3f4 d63b
00000080: bb5b 6abd 203c 98bd 2196 b2bc 1165 7cbc
00000090: c18b 43bd 58d7 263d b219 f9bb 486b 86bb
000000a0: 4999 713d dc89 b0bd 4d54 d6bd 95ab 05be
000000b0: 8b6d b73d b5f9 1bbd f28a 8abd ad85 733d
000000c0: a6bb 5bbd b1e0 723d 1d7f 8bbc 35a6 9a3d
000000d0: f37c c13d 70db c1bc 108d 553d 357f cf3d
000000e0: f98f 7a3d 987f 973c 0846 01bd 8658 97bd
000000f0: 8b31 55bd 1a9f a33d 7904 fcbc ecb4 86ba
00000100: faec 643d 1ef3 b7bd e5d5 68bd 7cc3 d1bb
00000110: c654 473d 38b6 22bd c28b 97bd b35e 163b
00000120: 67cf 093d a452 b2bc d7d3 88bd 9dd0 9abd
00000130: 4a84 143c 6469 0cbd 35bf 60bd 2f1a 5e3d
00000140: 398d debc 02fc 673d e640 95bd c843 d13c
00000150: 2d73 60bd 3bf5 49bd 949c 0b3d 8d35 95bc
00000160: 8b36 f5bc 064e 423d 47bc e1bc 55d7 dabc
00000170: 0982 2dbc b9f4 bfbc 2cac a93c aae6 80bd
00000180: dad4 023d 24e7 45bd 1cab 87bd 18d3 9fbc
00000190: 1354 923d b6b9 6bbc be12 853d 8fa0 01bd
000001a0: 8c0d 6ebd 7e42 0b3d d8ff 1bbd d6b2 d23c
000001b0: 41aa 76bd ed10 6fbd 6255 ba3d 082a 0e3d
000001c0: f912 a5bd 8a33 543d cc44 8ebd 3041 933d
000001d0: bdf3 b2bd 1ee8 073d 2eb6 903a 8809 77bd
000001e0: 2929 7a3d 2682 5c3d 1251 98bd 209b 6bbd
000001f0: c72f 2abd 1f0f e1bc 4359 8bbd a811 78bc
00000200: 8353 90bc 7123 5f3d 9fe9 c53a 26b0 00be
00000210: 6196 383c cb6a fc3a 7482 b0bd 0d3a 65bd
00000220: e55f debb 3ae0 8b3c e1f8 d3bb a271 5b3d
00000230: 1fed 15bd 68da 72bd 57b9 863c 45e7 a2bc
00000240: dd2e bf3c b239 acbd 55ce b0bc d19a e9bc
00000250: 350a 2a3c 48ba c13d b156 36bd d965 133d
00000260: d579 4fbd d966 03be 9a9f 323d ff9a 293d
00000270: 3c11 933d 89d4 a8bd 7348 273d 49fe 703d
00000280: 89ac f3bc c6a9 f43c 8c3f 253d c50d c03a
00000290: 5779 80bd b67f d5bd c29f 433d e955 ec3b
000002a0: be4a eabc fc43 b13d 75f7 f73d 746c 693c
000002b0: 06ed 6abd 0481 f3ba d8df 00bd 315e 573d
000002c0: 7fd8 a73a b3f3 863d eec4 af3b d4a5 66bd
000002d0: 1bdc 783d f40d 9b3d 15f1 cd3d fbdd ab3c
000002e0: 5b66 303d 86f1 44bd 0303 153c 4f99 1c3d
000002f0: 6cbf a73d ca94 373d 63eb d13c 2fd9 253c
00000300: 9f37 ee3c 214e 10bd b68b c5bd b11a 193d
00000310: 0e69 a03c aff8 8b3c ec19 fe3b 8c61 9abc
00000320: ad5a 923d 8566 983d 52c7 84bd ca09 f1bc
00000330: f4ee 17bd 45b7 673d 7257 01be cc9b 813d
00000340: 059a 663d 2925 cebb d627 c7bc 8c07 733d
00000350: cb7d 863d 4e50 92bd 92b0 893c a948 923d
00000360: 1587 70bd 354a 293d a830 fe3c ba16 0cbd
00000370: 60be 99bd 0c9f 53bc 03f5 3ebd 1aba 233d
00000380: fd18 f73c 0f1e 8dbd 98f0 3dbd 019c 55bd
00000390: cc9b abbd 1ec2 3f3d 237b 243d 5808 c3bd
000003a0: 8c2d 183d 2ff9 99bd 717b d43c cf89 c13c
000003b0: 49f0 b03d d744 5dbd 0164 41bd 3319 75bd
000003c0: 3648 95bd 7205 24bd d9e5 d83c f0f2 11bc
000003d0: ebbf edbb e5fa 963c 84bf 1a3c fbea 5d3d
000003e0: 691b 80bd 2775 67bd 4a69 5c3b 0aae 2a3c
000003f0: 11d2 b33d 3d5b 30bd c730 dc3d 22da 213c
0.09702279 0.051937863 -0.037449103 0.032563604 -0.025311518 0.04036313 -0.014099122 -0.019274006
0.05665585 -0.075303465 -0.034994163 0.039405398 0.060965385 -0.06694163 0.063573524 0.01473796
0.044068858 -0.03435642 0.109594405 -0.024049366 -0.04768289 0.023638774 -0.05020362 -0.01717491
-0.021454476 -0.048080258 0.07599289 0.03937744 -0.07315191 -0.045174226 -0.060458884 0.006559932
-0.057216387 -0.07433343 -0.021800103 -0.0154049555 -0.0477407 0.04073271 -0.00760194 -0.0041021444
0.058984075 -0.086200446 -0.10465298 -0.13053735 0.089564405 -0.038079936 -0.06764783 0.059453655
-0.053645752 0.059296314 -0.017028386 0.07551233 0.0944766 -0.023664206 0.05213648 0.10131685
0.06117246 0.018493459 -0.031560928 -0.073899314 -0.0520492 0.079893306 -0.030763851 -0.0010277308
0.05589006 -0.08981918 -0.05684461 -0.0064014774 0.04866483 -0.03972456 -0.073997036 0.0022944629
0.03364506 -0.021767922 -0.0668103 -0.07559321 0.009064743 -0.034280196 -0.05486985 0.05422419
-0.02716695 0.056636818 -0.07287769 0.025545016 -0.05479734 -0.049306136 0.03408487 -0.018214012
-0.029933235 0.04743769 -0.027555598 -0.026714006 -0.010590085 -0.023432123 0.02071198 -0.06293996
0.031941272 -0.048316136 -0.066244334 -0.019509837 0.07144942 -0.014387539 0.064977154 -0.03164726
-0.058118388 0.03399896 -0.03808579 0.025720041 -0.06022096 -0.05836575 0.09098317 0.034708053
-0.08060259 0.051806964 -0.06946716 0.07190168 -0.08737896 0.03318035 0.0011040622 -0.060311824
0.06107441 0.053835057 -0.07437338 -0.057520986 -0.04154947 -0.02747303 -0.06804135 -0.015140928
-0.017617946 0.05447716 0.0015099532 -0.12567195 0.011266322 0.0019257901 -0.08618632 -0.055963565
-0.006786334 0.017074693 -0.0064688777 0.053575166 -0.03660309 -0.05929032 0.016445799 -0.019885669
0.023337776 -0.08409442 -0.021582762 -0.028516205 0.01037841 0.094593585 -0.04451627 0.0359858
-0.050653297 -0.12832202 0.04360924 0.04140758 0.071810216 -0.08243663 0.040840577 0.058836255
-0.029745357 0.02986611 0.040343806 0.0014652541 -0.06273144 -0.104247496 0.04775978 0.0072123897
-0.028600093 0.08655545 0.121077456 0.014247049 -0.05735495 -0.0018577878 -0.031463474 0.052580062
0.001280561 0.06589451 0.005364052 -0.05631049 0.060756784 0.07571021 0.100557484 0.020979872
0.043066364 -0.048081897 0.009094956 0.038232144 0.08190808 0.04481963 0.025624936 0.010122581
0.029079257 -0.03523076 -0.09645788 0.03737897 0.019581344 0.017086355 0.007754555 -0.018845342
0.07146201 0.07441429 -0.0648333 -0.029423613 -0.037093118 0.056571264 -0.12631014 0.06328544
0.05629923 -0.006291051 -0.024310987 0.05933337 0.06566962 -0.07144223 0.016807828 0.07142765
-0.058722574 0.041330535 0.03102906 -0.03420136 -0.07507014 -0.012916338 -0.04662038 0.039972402
0.030163283 -0.06890499 -0.046372026 -0.05215073 -0.08379325 0.046815984 0.040156495 -0.09523076
0.037152812 -0.07518231 0.025937768 0.023625283 0.08639581 -0.05402073 -0.04721451 -0.059838485
-0.07289164 -0.040044256 0.026476787 -0.0089080185 -0.0072555444 0.018430183 0.009445075 0.054179173
-0.06255228 -0.05650821 0.0033632093 0.010417471 0.08780301 -0.04305576 0.10751491 0.009878667

fc2.bias f4 [10]
00000000: a41c 9e3c 6b44 813d 6da5 1a3d e10f cd3c
00000010: b483 70bd 7184 bdbc d8fd 42bd 0c3b b6bc
00000020: 7828 7ebb eaaa 6c3d
0.019300766 0.06311878 0.03775542 0.025031986 -0.058719352 -0.023134442 -0.047605366 -0.022244953
-0.0038781445 0.057780184
